Python/data/PB_model.pth (torch, 49397 bytes, 15 tensors)

gnn.conv_params.0.weight f4 [32, 9]
0	0xbda2cae8	-0.079488575
1	0x3db6d48f	0.08927261
2	0xbead21fc	-0.3381499
3	0x3e8350fd	0.25647727
4	0xbe241bbd	-0.16026206
5	0xbec116f5	-0.37712827
6	0x3e4e7cfa	0.20164862
7	0x3e0db1ec	0.13837403
8	0xbddcbf35	-0.10778657
9	0xbe0eb40f	-0.13935874
10	0x3e9ea883	0.3098794
11	0x3b9bab58	0.0047506504
12	0x3e6bd890	0.23031831
13	0x3ec0923a	0.37611562
14	0x3e3830d4	0.17987376
15	0x3eb74e00	0.35801697
16	0xbe8f18ee	-0.27948707
17	0xbdefd20f	-0.11709987
18	0xbd838bb5	-0.064231314
19	0xbdf8a2f5	-0.121404566
20	0xbde77ad4	-0.113027245
21	0x3e7c7851	0.24655272
22	0xbeecd862	-0.46258837
23	0x3e757d0c	0.23973483
24	0x3e941e55	0.28929392
25	0x3e76b8cd	0.24093933
26	0x3e378bc2	0.17924407
27	0x3e9bc4dd	0.30423632
28	0xbdba1b9c	-0.09087297
29	0xbe5fed12	-0.21867779
30	0xbeabaaa2	-0.3352862
31	0x3e8c43b8	0.27395415
32	0x3dab1519	0.083536334
33	0x3c747d17	0.014922402
34	0xbe56bedb	-0.20971243
35	0x3d03b7fa	0.032157876
36	0xbe83de25	-0.2575542
37	0xbec66a56	-0.38753003
38	0xbe684a1a	-0.22684518
39	0x3dcd31b9	0.100192495
40	0xbeb50abf	-0.3535976
41	0x3eaf8aab	0.34285483
42	0x3e4b0965	0.19827802
43	0xbe39d4bb	-0.18147556
44	0x3d55ace7	0.052166846
45	0xbe0be84c	-0.13662833
46	0x3e80c7f8	0.25152564
47	0xbecc65a6	-0.39921302
48	0x3eb275de	0.3485555
49	0xbe23c96e	-0.15994808
50	0x3eaacd15	0.3335959
51	0xbe1137f4	-0.141815
52	0xbe999803	-0.29998788
53	0xbdb1647c	-0.08661744
54	0xbd3027e1	-0.04300678
55	0xbe2768df	-0.16348599
56	0xbee7de45	-0.45286766
57	0xbeb2df17	-0.3493583
58	0x3eb1cba2	0.34725672
59	0xbeb8d499	-0.360997
60	0x3e3bb071	0.18329026
61	0xbead334e	-0.33828205
62	0x3eee18e9	0.4650338
63	0xbe833a14	-0.25630248
64	0x3ebea6aa	0.3723653
65	0x3eac656f	0.33671138
66	0xbebd6065	-0.36987606
67	0xbdfc080f	-0.123062246
68	0xbe1eae7e	-0.15496251
69	0x3e9b0d49	0.30283573
70	0xbd9098f3	-0.07060423
71	0x3e1f2868	0.15542758
72	0xbe555ec8	-0.20836937
73	0xbdf380a0	-0.11889768
74	0x3e49af59	0.19695796
75	0xbeadbd84	-0.3393365
76	0xbce328d5	-0.027729431
77	0x3e26c6d7	0.16286789
78	0x3cfce3fb	0.030870428
79	0x3e0a7dfc	0.13524622
80	0xbde704b1	-0.11280192
81	0xbe5bfde3	-0.21483569
82	0x3e925bd6	0.2858569
83	0x3d919a94	0.071095616
84	0x3e713daa	0.23558679
85	0xbe6ceb76	-0.23136696
86	0xbec2cbb7	-0.38046047
87	0xbd62b4c4	-0.055348173
88	0x3eb5ac66	0.35483092
89	0x3ec39bff	0.38204953
90	0x3eb57554	0.35441077
91	0xbeb75a91	-0.35811284
92	0x3eaf782c	0.3427137
93	0xbe620474	-0.22072011
94	0x3e7cd34a	0.24689975
95	0xbdaa6754	-0.083204895
96	0x3e6d0b68	0.23148882
97	0xbe69f9a9	-0.22849144
98	0xbeb6d1df	-0.35706994
99	0xbdf20b3e	-0.118185505
100	0x3c0818fe	0.00830674
101	0xbd524aad	-0.051340748
102	0x3ea17f59	0.3154247
103	0x3ea6fa43	0.3261281
104	0xbdd0be37	-0.101925306
105	0x3e6db28a	0.23212638
106	0x3e3538e9	0.17697491
107	0x3e83095e	0.25593084
108	0xbd0c596c	-0.034264967
109	0xbe599fb1	-0.21252324
110	0x3eb1fc80	0.34762955
111	0x3ec8a1ef	0.39186046
112	0xbe800fc6	-0.25012034
113	0x3ea37c25	0.31930652
114	0xbdd4a4ae	-0.10382973
115	0x3d7fa9e6	0.062417887
116	0xbe3e72f5	-0.1859854
117	0xbbd5c18d	-0.006523317
118	0x3ccc6971	0.024952622
119	0xbea4505f	-0.32092568
120	0x3dcdc438	0.100471914
121	0x3e34fc21	0.17674305
122	0x3e92b8cd	0.28656617
123	0x3eacef11	0.33776143
124	0xbe1835c8	-0.14864266
125	0xbe85230d	-0.26003304
126	0x3d5f7f1a	0.054564573
127	0xbd501d4c	-0.05080919
128	0x3ed6b3be	0.41934007
129	0x3eaa8070	0.33301115
130	0x3e9c4f6f	0.30529353
131	0x3eb32756	0.34990948
132	0x3df61c90	0.120171666
133	0x3d3aa728	0.04556957
134	0xbe652922	-0.22378972
135	0xbd5d08e3	-0.053963553
136	0x3dc68013	0.09692397
137	0xbef34125	-0.4751064
138	0x3e70a010	0.23498559
139	0x3e7ce699	0.24697341
140	0xbe9f0d1b	-0.31064686
141	0x3e3a969d	0.18221517
142	0x3e491e9f	0.19640587
143	0x3ef23737	0.4730775
144	0x3dc056a1	0.09391523
145	0xbe307ead	-0.17235823
146	0x3e32f10d	0.17474766
147	0xbea19408	-0.3155825
148	0xbe877375	-0.26455274
149	0x3dac440d	0.08411417
150	0xbe85df37	-0.26146862
151	0x3e6db194	0.23212272
152	0x3d8ddea5	0.06927232
153	0xbe3ce1b1	-0.1844547
154	0xbec02954	-0.3753153
155	0xbec6b218	-0.3880775
156	0x3bc26178	0.0059320293
157	0xbd7c00fd	-0.06152438
158	0x3d5c8988	0.053842098
159	0xbed16b6e	-0.40902275
160	0x3e1f16f7	0.15536104
161	0xbed16603	-0.4089814
162	0x3db4adb6	0.08822195
163	0xbd930b49	-0.07179887
164	0xbe80d18f	-0.2515988
165	0xbccd5a31	-0.02506742
166	0x3c79a266	0.015236473
167	0xbdac87f4	-0.084243685
168	0xbe43d39b	-0.1912369
169	0xbeb0ccad	-0.34531155
170	0xbeae10b3	-0.33997115
171	0x3e118db7	0.14214216
172	0x3e624d5c	0.22099823
173	0xbec2684a	-0.3797019
174	0xbe86bcfb	-0.26316056
175	0xbdd7f6e0	-0.105451345
176	0xbdfe8ae4	-0.12428835
177	0x3deaeb35	0.114706434
178	0x3e033513	0.12813215
179	0x3ec01d1d	0.37522212
180	0xbdcbd39c	-0.09952471
181	0xbe8ae9b4	-0.27131426
182	0xbe90f3a1	-0.28310874
183	0x3de33cd5	0.11095587
184	0x3cfabd37	0.030607803
185	0xbe35fee1	-0.1777301
186	0x3dd260db	0.1027238
187	0x3ea34fcb	0.31896815
188	0x3ec3558c	0.38151205
189	0xbdae48b8	-0.08509964
190	0x3e80a747	0.25127622
191	0xbd5ad341	-0.053424124
192	0xbe8eeae9	-0.27913597
193	0x3df3ba97	0.119008236
194	0xbc093377	-0.008374087
195	0x3e20c51a	0.15700188
196	0xbe82b131	-0.2552581
197	0x3df878cc	0.12132415
198	0xbea1f4da	-0.3163212
199	0x3eb9c0fb	0.36280045
200	0xbeafabe6	-0.34310836
201	0xbebb0ac0	-0.3653164
202	0x3e239fff	0.15979002
203	0x3c7e4790	0.0155199915
204	0x3cc0a559	0.023516344
205	0x3e4b1506	0.19832239
206	0x3ed1a257	0.40944168
207	0x3ebc9645	0.36833397
208	0x3b9ebe34	0.0048444513
209	0xbd07c19b	-0.03314362
210	0x3e6a61e8	0.22888911
211	0x3ed8c517	0.42337868
212	0xbd8bf739	-0.06834263
213	0xbe498ff2	-0.19683817
214	0xbcccfff6	-0.025024395
215	0x3bb752f2	0.0055946046
216	0xbe80abbd	-0.25131026
217	0x3ec14911	0.37751058
218	0x3dc8832f	0.09790646
219	0x3e252cca	0.16130367
220	0x3e97ec20	0.29672337
221	0x3e2ee9f2	0.1708143
222	0xbdfbc5af	-0.122935645
223	0x3ea50135	0.32227483
224	0x3d0b57df	0.034019347
225	0xbe2502cf	-0.16114353
226	0x3eb32364	0.34987938
227	0xbe6ab6ac	-0.22921246
228	0x3e653d1b	0.22386591
229	0xbe4070f7	-0.18793093
230	0x3e9c154e	0.30485004
231	0xbe6c2fb3	-0.23065071
232	0xbe022b8d	-0.12711926
233	0x3ec9da74	0.3942448
234	0x3db3e8a9	0.08784611
235	0xbeccc728	-0.39995694
236	0xbed60a1e	-0.41804594
237	0xbea025f2	-0.3127895
238	0x3e5614d4	0.20906383
239	0xbe9f2b51	-0.31087735
240	0x3d9c9117	0.07644861
241	0xbe61680c	-0.22012347
242	0x3ecab54f	0.39591452
243	0x3e7c93b4	0.2466572
244	0xbe1b1b4e	-0.15147135
245	0xbe8ad23a	-0.27113515
246	0xbe3e925e	-0.18610522
247	0xbd69cdaa	-0.057080902
248	0xbe2b87ec	-0.16751069
249	0x3d4d057d	0.050054062
250	0x3e8467d7	0.25860474
251	0xbe562105	-0.20911033
252	0x3e162eed	0.14666338
253	0xbecad5ab	-0.3961614
254	0xbe79a358	-0.24378717
255	0xbe479a7c	-0.19492525

gnn.conv_params.0.bias f4 [32]
0	0xbc4b6e5a	-0.012416447
1	0xbbc7b98b	-0.0060951165
2	0xbcbaff3b	-0.022826781
3	0xbc9dc5f3	-0.019259429
4	0xbb4ff4df	-0.0031731648
5	0xbbc3c41a	-0.005974305
6	0xbc1ae0a0	-0.009452969
7	0x3cd9d400	0.026590347
8	0xbc3e603b	-0.011619623
9	0x3c104803	0.008806231
10	0x3b5332c7	0.003222631
11	0x3a377403	0.0006998183
12	0x3bc6a926	0.0060626445
13	0xbc6918e2	-0.014227124
14	0x3bff7094	0.007795403
15	0xbbc65ad9	-0.0060533104
16	0xbc467ad7	-0.012114248
17	0xbc927673	-0.017878747
18	0x3bb768ef	0.005597226
19	0xbbc5a0f5	-0.0060311505
20	0xbc93706d	-0.017997945
21	0xbc173b9b	-0.00923052
22	0x3c5cf183	0.013485315
23	0x3cb1ed23	0.02171952
24	0x3be97cb8	0.0071254633
25	0x3cb2e0c6	0.021835696
26	0xbcc134f0	-0.023584813
27	0xbb0b5896	-0.0021262518
28	0xbc3c03c8	-0.011475511
29	0x3bca570e	0.0061749285
30	0x3c5f80ad	0.013641519
31	0x3c40dc2a	0.011771241

gnn.conv_params.1.weight f4 [32, 32]
0	0xbe6d080c	-0.23147601
1	0x3db2e386	0.08734803
2	0x3e4d2f14	0.2003749
3	0xbe32b429	-0.17451538
4	0xbe3c4039	-0.18383874
5	0x3e098667	0.13430177
6	0xbddb67c3	-0.1071315
7	0x3d1772ca	0.036974706
8	0xbd7041d4	-0.05865653
9	0xbe7af198	-0.24506223
10	0x3d48ce6e	0.04902499
11	0x3d5d3a62	0.054010756
12	0x3e5b38e3	0.2140842
13	0xbe376baf	-0.17912172
14	0x3e90a8f2	0.28253895
15	0xbea3fb87	-0.32027838
16	0x3e1e6444	0.15467936
17	0x3e906bb7	0.2820718
18	0x3dce6ffb	0.10079952
19	0x3d04fa00	0.03246498
20	0xbdc67320	-0.09689927
21	0x3b29017c	0.0025788238
22	0x3e96327a	0.29335386
23	0xbdcf4da5	-0.101222314
24	0x3e6859ee	0.22690555
25	0xbe678a92	-0.22611454
26	0x3d9438c2	0.07237388
27	0xbe4528ac	-0.19253796
28	0xbe8a2596	-0.269818
29	0x3e963fb3	0.29345474
30	0xbda7e2f8	-0.08197588
31	0xbc90cdab	-0.017676195
32	0xbc4d384a	-0.012525627
33	0x3e7fc74e	0.24978372
34	0xbe3ed85d	-0.18637224
35	0xbe02c62d	-0.1277091
36	0xbc2ab403	-0.010418895
37	0x3d41119e	0.04713594
38	0xbe94d719	-0.29070356
39	0x3e2d1a3e	0.16904542
40	0xbe93c3ea	-0.28860408
41	0x3eaebc75	0.34128156
42	0x3e4c540b	0.19953935
43	0x3d7e3fa1	0.0620724
44	0x3e813ba1	0.25240806
45	0xbe9ef5b7	-0.3104684
46	0x3e59a32f	0.21253656
47	0xbe8d5462	-0.2760344
48	0x3e7e9ad9	0.24863757
49	0xbe260a85	-0.1621495
50	0x3e066561	0.1312461
51	0x3cd03c2a	0.025419313
52	0xbe4754dc	-0.19465965
53	0xbdc67074	-0.096894175
54	0x3e85b05b	0.2611111
55	0xbe079fed	-0.132446
56	0x3e14be55	0.14525731
57	0x3e83a5a4	0.2571231
58	0xbdc9efa0	-0.09860158
59	0xbd44c81f	-0.048042413
60	0x3d374e26	0.044752263
61	0x3e4a494b	0.19754522
62	0x3dd9e091	0.10638536
63	0x3ba9d55c	0.005182905
64	0xbe53d100	-0.20685196
65	0xbe4e9ed2	-0.20177773
66	0xbde7fd11	-0.113275655
67	0xbe2f2142	-0.1710253
68	0xbda33742	-0.07969524
69	0x3e487dd9	0.19579257
70	0xbdf222a5	-0.11823014
71	0x3e23aa46	0.15982923
72	0xbe8feae4	-0.28108895
73	0x3e2cdbf7	0.16880785
74	0xbe0522bf	-0.13001536
75	0x3e98e8fe	0.2986526
76	0xbe846c79	-0.25864008
77	0xbddfa968	-0.109209836
78	0x3e89d6bd	0.26921645
79	0x3e740320	0.23829317
80	0xbe9f9cae	-0.31174225
81	0xbe7bc6d9	-0.24587573
82	0x3ea76ab6	0.326986
83	0x3e2e80c2	0.17041305
84	0xbe98ec21	-0.29867652
85	0xbdb53d60	-0.08849597
86	0xbd033ed5	-0.032042343
87	0xbe061bce	-0.13096544
88	0x3d0bad73	0.03410096
89	0xbe0baddc	-0.13640541
90	0xbcfdaddc	-0.030966692
91	0x3d9a9f2c	0.07549891
92	0x3e94c2fd	0.29055014
93	0xbe354c69	-0.1770493
94	0x3d68a6e5	0.056799788
95	0xbea0db76	-0.31417435
96	0xbd451a7e	-0.048120968
97	0x3d4f7863	0.05065192
98	0xbdf85697	-0.12125891
99	0x3cee11d9	0.029061245
100	0x3e4acd32	0.19804838
101	0x3e4c3229	0.1994101
102	0xbdcac2fc	-0.099004716
103	0xbe7e165c	-0.24813217
104	0x3e428dfe	0.18999478
105	0xbc953ac1	-0.018216493
106	0xbe86d4ba	-0.26334172
107	0xbe1dc0bf	-0.15405558
108	0x3dea238c	0.11432561
109	0x3e811ae4	0.25215828
110	0x3cbbcd78	0.022925124
111	0x3e79ac23	0.24382071
112	0x3e78e37f	0.24305533
113	0x3cb3b912	0.021938834
114	0x3e777ab8	0.24167907
115	0x3e958b39	0.2920778
116	0x3e8719e9	0.26386955
117	0x3e8b52cc	0.27211607
118	0xbe815b63	-0.25265035
119	0xbe09ff63	-0.13476329
120	0xbe11c8b8	-0.14236724
121	0x3d94c733	0.07264557
122	0x3cdc106f	0.026863305
123	0x3bb08a78	0.0053876005
124	0x3de5acfa	0.11214633
125	0xbe3a4cd8	-0.18193376
126	0x3ea01173	0.31263313
127	0xbea4cecb	-0.3218902
128	0x3e65b3c4	0.22431856
129	0x3e6e9ec6	0.23302755
130	0x3e2932d0	0.1652329
131	0x3e5d97c2	0.21639922
132	0x3e9ab94f	0.30219504
133	0x3d55a9f2	0.052164026
134	0x3e26b1ec	0.1627881
135	0xbdd3c147	-0.10339599
136	0x3e14de46	0.14537916
137	0x3e43f5c6	0.19136724
138	0x3e2ab645	0.16671093
139	0xbe277ba7	-0.16355763
140	0x3e8005ec	0.25004518
141	0x3a1a2ee9	0.0005881624
142	0x3e4c9f78	0.19982708
143	0x3e977e12	0.29588372
144	0xbd15a921	-0.036538247
145	0xbde752a0	-0.11295056
146	0xbd88ceda	-0.06680079
147	0x3dd674e7	0.10471516
148	0x3e7cd42a	0.24690309
149	0xbe67a4d1	-0.22621466
150	0xbe7cff84	-0.24706846
151	0xbe9b707c	-0.30359256
152	0x3e0547de	0.13015696
153	0x3e4db665	0.20089109
154	0x3e8ce364	0.27517235
155	0xbd9a271b	-0.0752699
156	0x3ddb4086	0.10705666
157	0x3db39f4a	0.08770616
158	0xbdc4eacc	-0.096150964
159	0xbe520fb6	-0.20513806
160	0x3d08b085	0.033371467
161	0xbe17578b	-0.14779489
162	0x3e7804be	0.24220559
163	0x3e891046	0.26770228
164	0x3e64fb93	0.22361593
165	0x3e5145f4	0.20436841
166	0x3cb87eaa	0.022521336
167	0xbdfa222d	-0.1221355
168	0x3e437690	0.19088197
169	0xbea96312	-0.33083397
170	0x3e45ad05	0.19304283
171	0x3e3f2716	0.18667254
172	0xbd231137	-0.03981134
173	0x3e03ea99	0.1288246
174	0xbe8f27c1	-0.27960017
175	0x3e97f39a	0.2967804
176	0xbd2fcb8d	-0.04291873
177	0xbe5e0328	-0.21680892
178	0xbe0cb9ba	-0.13742724
179	0xbd246aca	-0.040140904
180	0x3bd73bd9	0.0065684137
181	0xbe49f6ec	-0.197231
182	0xbe140619	-0.14455451
183	0x3e508870	0.20364547
184	0xbe2c0b79	-0.16801251
185	0xbe890b7c	-0.26766574
186	0x3e4b2a37	0.19840322
187	0x3d68d8d7	0.05684742
188	0x3dd005b4	0.10157338
189	0xbe7d5f98	-0.24743497
190	0xbe888cf3	-0.26670036
191	0xbc01b4a2	-0.007916601
192	0x3ba4de7b	0.0050314046
193	0xbe9b7131	-0.30359796
194	0xbe3b4023	-0.18286185
195	0x3d68e398	0.056857675
196	0x3dac8a1d	0.084247805
197	0x3c57fa44	0.013182227
198	0x3ddf2ca0	0.108971834
199	0xbed926d6	-0.42412442
200	0xbd426242	-0.047456987
201	0x3e2c58ce	0.16830751
202	0xbdf4e932	-0.11958541
203	0x3d4da0d7	0.050202217
204	0x3dc1f336	0.09470217
205	0xbe3e5f0a	-0.18590942
206	0x3e28d2ab	0.16486613
207	0x3e33dcff	0.17564772
208	0x3ead0ef0	0.3380046
209	0x3e895a1a	0.26826555
210	0x3db6229a	0.088933185
211	0x3e943be2	0.28951937
212	0x3d9e266e	0.07722174
213	0xbe6e16bc	-0.2325086
214	0xbe67cbfd	-0.22636409
215	0xbe044d4e	-0.12920114
216	0xbe017e13	-0.1264575
217	0xbea57411	-0.32315114
218	0xbdb1cf5e	-0.0868213
219	0xbe8350e2	-0.25647646
220	0x3e409b88	0.1880933
221	0xbea0743f	-0.3133869
222	0x3cb3aca0	0.0219329
223	0xbe346b97	-0.17619167
224	0x3b919805	0.004443171
225	0x3e4454b9	0.19172944
226	0x3de50fa6	0.11184625
227	0xbeaeb366	-0.34121245
228	0xbe3df542	-0.1855059
229	0xbe1dec72	-0.15422228
230	0x3deafee7	0.114744
231	0x3d1f99b4	0.038964942
232	0x3cf3964a	0.02973475
233	0x3e86e80e	0.2634892
234	0xbe644869	-0.22293247
235	0xbe0df9b1	-0.13864781
236	0x3e50eb71	0.20402314
237	0x3e742d98	0.23845518
238	0x3e4fd9ed	0.20297976
239	0x3e8dd583	0.2770196
240	0xbe31b1ca	-0.17352977
241	0xba165b23	-0.00057356263
242	0x3e828e78	0.2549932
243	0x3e5246da	0.2053484
244	0xbe1051a7	-0.14093648
245	0xbe4a5f79	-0.19762982
246	0x3e78dd7e	0.24303243
247	0x3e01c311	0.12672068
248	0xbe5236d8	-0.20528734
249	0xbe36f8a7	-0.17868291
250	0x3e3fc112	0.18725994
251	0xbea81ff3	-0.32836875
252	0x3ca0fffd	0.019653315
253	0x3e5238d2	0.20529488
254	0xbc787c1f	-0.0151663115
255	0x3d64e4eb	0.055882376

gnn.conv_params.1.bias f4 [32]
0	0x3bd9488c	0.0066309627
1	0x3c27d5d1	0.010243849
2	0xbb62c2bc	-0.0034600934
3	0x3bb1eb87	0.0054296884
4	0xbc8a6d6d	-0.016897881
5	0xbc1bd8c8	-0.009512134
6	0xbbc81436	-0.006105925
7	0xbb37bb81	-0.0028035345
8	0xbc03fd7c	-0.008056041
9	0xbc588812	-0.013216035
10	0xbc89446d	-0.01675626
11	0xbb2d6cba	-0.002646251
12	0xbbf5bf08	-0.0074995793
13	0xbbbbf4c8	-0.0057359673
14	0x3bee6933	0.0072757243
15	0x3c407a30	0.011747882
16	0x3c78c0fb	0.015182729
17	0x3c160e3c	0.009158667
18	0xbc2767b1	-0.010217593
19	0x3c847cc3	0.016172772
20	0xbb83596a	-0.0040084617
21	0x3c17e166	0.009270048
22	0x3cacbdbe	0.02108657
23	0x3bae3d46	0.005317363
24	0x3add2673	0.0016872421
25	0x3d126792	0.035743304
26	0x3bc7b924	0.0060950685
27	0xbc1f7a39	-0.00973373
28	0xbbc4614a	-0.005993043
29	0xb8194a3e	-3.6547186e-05
30	0xbca5d467	-0.020242883
31	0x3b24776f	0.0025095602

gnn.conv_params.2.weight f4 [32, 32]
0	0xbe7713c5	-0.24128635
1	0x3de5ec97	0.112267666
2	0x3d286373	0.041110467
3	0x3e98511c	0.29749382
4	0x3e617620	0.22017717
5	0xbe37755b	-0.17915861
6	0x3da08525	0.07837895
7	0x3e758cb7	0.2397946
8	0x3bc421d6	0.005985479
9	0xbdc69e0f	-0.09698116
10	0xbccaf3c0	-0.024774432
11	0xbd8b5fdd	-0.06805394
12	0x3e1fd5db	0.15608923
13	0xbe353b5d	-0.17698427
14	0xbe007609	-0.12545027
15	0xbd8328b0	-0.06404245
16	0xbde720bc	-0.112855405
17	0x3e427351	0.18989302
18	0xbe2f6f5b	-0.17132322
19	0xbe80987f	-0.25116345
20	0x3d35512e	0.044266872
21	0xbd985d6d	-0.074396946
22	0xbdc8e345	-0.09808973
23	0x3e84f0d1	0.25964978
24	0xbe49f5ed	-0.1972272
25	0xbe1c9f8d	-0.15295239
26	0xbd8d68a5	-0.06904725
27	0xbe01a567	-0.12660752
28	0x3e86d822	0.2633677
29	0x3e9ca859	0.3059719
30	0xbe324c1d	-0.17411847
31	0xbc9208b8	-0.017826423
32	0xbd3e1142	-0.046403177
33	0xbea43821	-0.32074073
34	0x3e988666	0.29790038
35	0x3ea4448a	0.3208354
36	0xbd95486d	-0.07289205
37	0x3eaaa92a	0.33332187
38	0xbdf608cb	-0.12013396
39	0xbe992b7e	-0.29915994
40	0x3e86222e	0.26197952
41	0x3e4b38d9	0.19845904
42	0xbd166615	-0.036718447
43	0xbe3f4164	-0.18677288
44	0x3e4ec837	0.20193563
45	0xbe0dbeb6	-0.13842282
46	0xbe6d7d5f	-0.23192357
47	0xbd7ba9e2	-0.06144131
48	0xbe24b2bf	-0.16083811
49	0xbe2770ad	-0.16351576
50	0x3d40ef77	0.04710337
51	0x3e609e11	0.21935298
52	0xbe8b02e4	-0.27150643
53	0x3d541fdf	0.051788207
54	0x3dd78004	0.10522464
55	0xbd885ecf	-0.06658708
56	0x3e365f67	0.1780983
57	0x3e2f5814	0.17123443
58	0xbe822bb4	-0.25423968
59	0xbd88ddf3	-0.066829585
60	0x3e438b6d	0.19096155
61	0x3e150aca	0.14554897
62	0x3dc0af8d	0.09408484
63	0x3e82af83	0.2552453
64	0x3e1c0234	0.15235215
65	0xbdfc96ee	-0.12333475
66	0xbe7db5fc	-0.24776453
67	0xbe8f2dee	-0.2796473
68	0xbded2e78	-0.11581129
69	0x3e2c1379	0.16804303
70	0x3addf39b	0.0016933562
71	0x3e057994	0.1303466
72	0x3dae8a37	0.08522456
73	0xbdbaca77	-0.09120648
74	0x3e92e537	0.28690502
75	0xbe67560b	-0.22591417
76	0xbe8ddab3	-0.27705917
77	0x3d94376e	0.07237135
78	0x3deae8db	0.11470195
79	0x3e889bea	0.26681453
80	0xbeaf6ba4	-0.3426181
81	0xbceee9e0	-0.029164255
82	0x3e5ed6a4	0.21761566
83	0x3e4f32ee	0.20234272
84	0xbdf479f5	-0.11937324
85	0xbe5dc3d8	-0.2165674
86	0xbe03bd7c	-0.12865251
87	0xbe166767	-0.14687882
88	0x3e0a06f8	0.13479221
89	0xbe67f3a7	-0.2265154
90	0xbeb0b144	-0.34510243
91	0x3e67c765	0.22634657
92	0xbe52a2ee	-0.20569965
93	0xbb71b4a9	-0.0036881363
94	0xbe5ce42d	-0.21571417
95	0xbe205213	-0.15656309
96	0x3d6fa169	0.058503542
97	0xbc236c2f	-0.009974523
98	0xbdf65a8f	-0.120289914
99	0xbe90767b	-0.28215393
100	0x3dbcf809	0.092269965
101	0xbeb12f63	-0.34606466
102	0xbe2344a4	-0.15944153
103	0xbe1fc6b7	-0.15603147
104	0xbe3182f8	-0.17335117
105	0x3e951da2	0.2912417
106	0xbdb7cde1	-0.08974815
107	0x3bfa62a5	0.007641154
108	0xbe766777	-0.24062906
109	0x3b094b58	0.002094945
110	0xbc7b4da5	-0.015338336
111	0xbe8faa9b	-0.2805985
112	0xbe9f3b79	-0.31100062
113	0x3df1f83c	0.11814925
114	0xbe6f1cf2	-0.23350886
115	0xbdfc6908	-0.123247206
116	0x3e028fd8	0.12750185
117	0x3dfdeb4d	0.12398396
118	0x3e627634	0.22115403
119	0xbe02df98	-0.12780607
120	0xbe1d0a0b	-0.15335862
121	0x3e770d28	0.24126112
122	0x3e86625f	0.26246926
123	0xbe8ca512	-0.2746969
124	0x3e1f6425	0.15565546
125	0x3dd1b28e	0.10239135
126	0x3c0299a3	0.0079712
127	0xbdcd04a9	-0.100106545
128	0xbdb3e449	-0.08783776
129	0xbe8dffc9	-0.2773421
130	0xbe54f21c	-0.20795482
131	0xbe1843a2	-0.1486955
132	0xbe818b34	-0.25301516
133	0xbd8bef91	-0.06832803
134	0x3ec33a89	0.38130596
135	0xbd791826	-0.060814045
136	0x3c3bdb8b	0.011465917
137	0x3daa066b	0.083020054
138	0x3e55af23	0.2086759
139	0x3da17c87	0.0788508
140	0xbe537dea	-0.20653501
141	0xbdc64815	-0.09681717
142	0xbe6ffcc3	-0.23436265
143	0x3e683e67	0.22680055
144	0x3de16802	0.11006166
145	0xbdba809d	-0.09106562
146	0xbe155e85	-0.14586838
147	0xbc1e8937	-0.009676269
148	0xbd8bc99f	-0.068255655
149	0xbe41b033	-0.18914871
150	0x3e1f6016	0.15563998
151	0xbe9fc6bd	-0.31206313
152	0xbdd6e80a	-0.10493477
153	0xbeaa448b	-0.3325542
154	0x3e83939c	0.25698555
155	0xbe9b4e62	-0.3033324
156	0x3e5a7d99	0.21336974
157	0x3e44caf7	0.1921805
158	0xbe097194	-0.13422233
159	0x3e00057f	0.12502097
160	0xbc8d4fcd	-0.017249966
161	0xbdb51e0c	-0.088436216
162	0xbd80cebc	-0.062894315
163	0xbd736d7c	-0.059430584
164	0xbe84d94f	-0.25947043
165	0xbeaaff8d	-0.33398095
166	0xbea7a716	-0.32744664
167	0x3e894d19	0.26816633
168	0x3da3403c	0.07971236
169	0xbe416ba1	-0.18888713
170	0x3dfe3da7	0.12414103
171	0xbe934d7c	-0.28770053
172	0xbe44acf8	-0.19206607
173	0xbe99fee1	-0.3007727
174	0xbc1920c8	-0.009346195
175	0x3db68f25	0.089140214
176	0x3e2b9680	0.1675663
177	0x3e8ead01	0.27866367
178	0xbe3c9f28	-0.18420088
179	0xbcfd6f46	-0.030936848
180	0x3e0b58ce	0.13608095
181	0x3e41b7ac	0.18917722
182	0x3e73c9ca	0.23807445
183	0xbc45452a	-0.012040416
184	0x3e37a5f3	0.17934398
185	0x3de95f85	0.11395172
186	0xbe7e39a7	-0.2482668
187	0x3df7a59c	0.12092134
188	0x3e39cddf	0.1814494
189	0xbda4879d	-0.08033679
190	0x3e3cc11e	0.18433043
191	0x3c31aa4c	0.010843825
192	0x3e91109d	0.28332987
193	0xbdc5ce81	-0.09658528
194	0xbe1d1288	-0.153391
195	0xbe916b78	-0.28402305
196	0xbe500fc8	-0.2031852
197	0x3d381ff1	0.044952337
198	0x3e8bd40d	0.2731022
199	0xbd338f4f	-0.04383784
200	0xbd1e7273	-0.038683366
201	0xbdd1fc7e	-0.10253237
202	0x3e0a98bb	0.13534825
203	0xbdb6c73b	-0.08924719
204	0x3e431875	0.19052298
205	0x3df16eea	0.11788733
206	0xbe0140be	-0.12622353
207	0xbe81453c	-0.25248134
208	0x3c1d9abf	0.009619414
209	0x3de50b60	0.1118381
210	0xbe36b802	-0.17843631
211	0x3e8910d2	0.26770645
212	0x3e20178b	0.15633981
213	0xbde842ac	-0.11340842
214	0x3d803b41	0.06261302
215	0xbe8afc43	-0.27145585
216	0x3e910ef8	0.28331733
217	0x3db808cc	0.08986053
218	0x3de15578	0.1100263
219	0xbe2286b7	-0.15871702
220	0xbd7503dd	-0.059818137
221	0x3e674938	0.22586524
222	0xbe15a4e0	-0.14613676
223	0xbe446d06	-0.19182214
224	0xbe948372	-0.29006535
225	0xbdd76141	-0.105165966
226	0x3d282c20	0.041057706
227	0xbd9ecad8	-0.07753533
228	0xbe7c170d	-0.24618168
229	0x3e9b9289	0.30385235
230	0x3dd70fe9	0.105010815
231	0xbe2e61ed	-0.17029543
232	0xbd78ddd8	-0.06075844
233	0xbe569f17	-0.20959125
234	0x3e08c35f	0.13355778
235	0xbe96e1e9	-0.2946923
236	0xbdcebf31	-0.100950606
237	0xbe5d5bae	-0.21617004
238	0xbe606d2b	-0.21916644
239	0xbd8580d8	-0.065187156
240	0x3e1410f2	0.14459589
241	0x3e829523	0.25504407
242	0x3e59d641	0.21273138
243	0x3d1d8725	0.038458962
244	0xbd7485b1	-0.05969781
245	0x3db814b3	0.08988323
246	0xbc5998b2	-0.013281034
247	0xbe7be048	-0.24597275
248	0xbe837f05	-0.25682846
249	0x3d82ddc6	0.06389956
250	0xbe3264c8	-0.17421257
251	0xbe8358e1	-0.25653747
252	0x3e63807a	0.22216979
253	0xbdc1c6b9	-0.094617315
254	0xbe6912ac	-0.22761029
255	0xbd7c7468	-0.06163445

gnn.conv_params.2.bias f4 [32]
0	0xbc939d79	-0.018019425
1	0xbb8723da	-0.004124147
2	0xbc0e6ade	-0.008692471
3	0x3c795d1d	0.015219954
4	0xbc5199ad	-0.012792987
5	0x3bd0ed82	0.0063759694
6	0xbc9f4ccd	-0.019445801
7	0xbbe1f4a8	-0.0068956204
8	0x3c980b91	0.018560203
9	0xbc79f585	-0.01525629
10	0x3ca99763	0.02070207
11	0x3c899fe8	0.016799882
12	0xbc156970	-0.009119377
13	0x39a7611f	0.00031925083
14	0xbc55cf15	-0.0130498605
15	0xbbc93e81	-0.0061414842
16	0xba51e1a2	-0.0008006339
17	0x3b5339f6	0.0032230592
18	0x3c871432	0.016489122
19	0xbb2d0ba1	-0.0026404636
20	0xbc394362	-0.011307569
21	0xbab234a2	-0.0013596008
22	0x3bcefb1e	0.0063165566
23	0x3c5d399f	0.0135025075
24	0xbb9a3254	-0.0047057066
25	0xbb065a37	-0.002050055
26	0x3c2658e4	0.010153029
27	0xbbac39fc	-0.0052559357
28	0x3c8efa50	0.017453343
29	0xbc1f2fd6	-0.009715995
30	0x3b727697	0.0036996955
31	0x3b748eb6	0.0037316508

gnn.conv_params.3.weight f4 [1, 32]
0	0xbd09d492	-0.03364999
1	0x3edfec6c	0.43735063
2	0x3ed40158	0.41407275
3	0xbe312193	-0.17297964
4	0x3d76b611	0.060232226
5	0xbec87919	-0.3915489
6	0x3bf31069	0.0074177277
7	0x3e410008	0.18847668
8	0x3d89f75b	0.067366324
9	0xbe41c323	-0.18922095
10	0xbeddd2d9	-0.43324926
11	0x3d2e3990	0.042535365
12	0xbeb5c799	-0.35503843
13	0x3d4f2e78	0.050581425
14	0xbe951fbf	-0.29125783
15	0x3ea57769	0.32317665
16	0xbebb3059	-0.36560324
17	0x3e0ce330	0.1375854
18	0x3e1d8672	0.15383318
19	0x3e9f6afe	0.31136316
20	0x3ef00a8f	0.46883056
21	0x3d269c97	0.04067668
22	0x3e75dcf1	0.24010064
23	0xbd9c1cbf	-0.076226704
24	0x3e8e21e5	0.27760234
25	0x3ec2dd40	0.38059425
26	0xbe563912	-0.20920208
27	0x3e5546a5	0.2082773
28	0xbdee7be0	-0.11644721
29	0x3e4be0e1	0.19910003
30	0x3e90696e	0.28205436
31	0xbedbea01	-0.42951968

gnn.conv1d_params1.weight f4 [16, 1, 97]
0	0xbd0c0fd2	-0.034194775
1	0xbb80e65c	-0.003933711
2	0xbd900e6c	-0.07034001
3	0xbd102f83	-0.03520156
4	0x3cd5447f	0.026033638
5	0xbde187d0	-0.11012232
6	0xbe15f8d7	-0.14645706
7	0x3da6e6b0	0.08149469
8	0xbc85cc99	-0.016332911
9	0xbb89b703	-0.004202725
10	0xbd84d6d8	-0.06486291
11	0xbdb16336	-0.08661501
12	0xbd77f472	-0.060535856
13	0xbe089d05	-0.13341148
14	0xbd14ebee	-0.036357813
15	0xbdd75849	-0.10514886
16	0x3dde36ae	0.10850273
17	0xbdb8b1f8	-0.0901832
18	0x3cbd4200	0.02310276
19	0xbdc61ebf	-0.09673833
20	0xbccd3e45	-0.025054106
21	0x3c3c0753	0.011476356
22	0xbdabfa1a	-0.083973125
23	0x3c9dfb77	0.019284947
24	0x3dde1976	0.108447
25	0xbd5cd65a	-0.05391536
26	0x3d54a468	0.051914603
27	0xbd4e4824	-0.050361767
28	0xbd843674	-0.064556986
29	0x3d8b8398	0.06812209
30	0x3dd9771a	0.1061842
31	0x3dbb8748	0.09156662
32	0x3db8a3dc	0.09015629
33	0xbd3208ba	-0.043465354
34	0xbab17452	-0.0013538694
35	0xbcb32899	-0.021869944
36	0xbda31635	-0.0796322
37	0x3c4969c5	0.012293284
38	0xbd3765a2	-0.04477466
39	0xbde03965	-0.10948447
40	0xbda44c37	-0.08022349
41	0xbe17053b	-0.14748089
42	0x3c3ed083	0.011646393
43	0xbda31687	-0.07963281
44	0xbd1b1b2a	-0.037867703
45	0x3ce598d3	0.028026974
46	0xba95cb1f	-0.0011428333
47	0xbd890f28	-0.06692344
48	0x3dd70cd0	0.10500491
49	0xbce1e5e5	-0.027575443
50	0xbddf5e1e	-0.10906623
51	0x3cf182dd	0.029481346
52	0xbdbc6db8	-0.09200615
53	0x3dfd0c47	0.12355857
54	0x3da71279	0.0815782
55	0xbc8927ff	-0.016742704
56	0x3c148d88	0.009066947
57	0xbd1a690b	-0.037697833
58	0x3d1fa125	0.03897204
59	0x3ccbde1e	0.024886187
60	0x3c4cade3	0.01249263
61	0xbd83ee68	-0.06441957
62	0xbda56b1e	-0.080770716
63	0xbda4ca0b	-0.08046349
64	0x3c629b85	0.013831024
65	0xbc027fa0	-0.0079649985
66	0xbda832fc	-0.082128495
67	0x3cb7c57d	0.022433037
68	0xbb3e65f3	-0.0029052466
69	0x3dee7270	0.11642921
70	0xbd8bef5f	-0.06832766
71	0xbd0d0265	-0.03442611
72	0xbcd05c50	-0.025434643
73	0x3b9acb9e	0.00472398
74	0xbd67679c	-0.056495294
75	0x3cdb8d0a	0.026800651
76	0xbc9eb7cb	-0.019374749
77	0x3db98d7d	0.0906019
78	0xbdcf45d7	-0.10120743
79	0x3d262cda	0.040570118
80	0xbd9bd52c	-0.07609019
81	0xbd768406	-0.0601845
82	0x3d4ec825	0.05048384
83	0x3dd55e36	0.1041836
84	0xbe1ecda5	-0.15508135
85	0x3b3f4b21	0.0029189067
86	0xbcf0d37b	-0.029397717
87	0xbd05a517	-0.032628145
88	0x3d36e050	0.044647515
89	0xbd75ff60	-0.060057998
90	0x3dfccef2	0.12344159
91	0xbd82e4ee	-0.06391321
92	0xbdc5e483	-0.09662726
93	0x3d4e011d	0.05029403
94	0x3dde8c18	0.108665645
95	0x3dbbf5df	0.091777556
96	0xbdd83cf6	-0.105585024
97	0xbc3a3a91	-0.011366502
98	0xbd70500e	-0.058670096
99	0xbd96ddcc	-0.07366523
100	0xbda29659	-0.07938833
101	0xbd933203	-0.07187273
102	0xbd7b023e	-0.061281435
103	0x3d08d43d	0.03340553
104	0xbc6467dc	-0.013940778
105	0x3d82b206	0.063816115
106	0x3d9f5b5e	0.07781099
107	0xbda12113	-0.078676365
108	0x3ca0d4b2	0.019632671
109	0x3d637ed0	0.05554086
110	0xbda8430f	-0.082159154
111	0xbcf02618	-0.02931504
112	0x3d97142d	0.07376895
113	0xbd99a512	-0.07502188
114	0x3db9caab	0.09071859
115	0x3c0f04ed	0.008729202
116	0x3c97582a	0.018474657
117	0x3dad9138	0.08474964
118	0xbdc23eaf	-0.09484612
119	0x3db167a3	0.08662345
120	0xbdb9a040	-0.090637684
121	0x3d4589fd	0.0482273
122	0xbb92385d	-0.0044622854
123	0x3da32ee9	0.07967932
124	0xbaa80ca0	-0.0012821145
125	0xbdcc182c	-0.09965548
126	0x3c572463	0.013131234
127	0x3d8af282	0.06784536
128	0xbca4804c	-0.020080708
129	0xbdc47e33	-0.09594383
130	0xbc6ac563	-0.014329287
131	0x3c033a68	0.008009531
132	0x3ccd26dc	0.025042944
133	0x3d052425	0.032505173
134	0xbc5d4d1f	-0.013507157
135	0xbbae3095	-0.00531585
136	0xbcaeb11a	-0.021324683
137	0x3d1f7b19	0.038935754
138	0x3cbe4047	0.02322401
139	0x3d287a01	0.041131977
140	0xbc17f550	-0.009274796
141	0xbc1ae46b	-0.009453873
142	0x3d98dd9b	0.07464143
143	0x3c5085c7	0.0127272075
144	0xbdbe1b4b	-0.092825495
145	0x3ca82935	0.020527462
146	0x3dc05d8f	0.09392845
147	0xbca13f9c	-0.019683652
148	0x3d7a1f90	0.061065257
149	0xbd95b080	-0.07309055
150	0xbc7e60f4	-0.015526045
151	0x3d8b0865	0.067887105
152	0xbd4ff2a4	-0.05076851
153	0xbcd41cd1	-0.025892647
154	0x3a62e2ad	0.0008654993
155	0xbc7b7c9d	-0.015349534
156	0xbce9c0e7	-0.028534366
157	0x3d8f77a6	0.07005243
158	0xbc97dff1	-0.0185394
159	0xbce11e36	-0.027480226
160	0x3d9be787	0.0761252
161	0x3cb94300	0.022614956
162	0xbd448412	-0.047977515
163	0x3d7991c2	0.06093002
164	0xbd4c1990	-0.049829066
165	0x3dcf41ac	0.10119948
166	0x3dacaa71	0.084309466
167	0x3c1ea822	0.009683641
168	0x3ce624fc	0.028093807
169	0xbd27e4d9	-0.04098973
170	0xbda0baf6	-0.0784816
171	0xbd93eceb	-0.07222923
172	0x3d040271	0.03222889
173	0x3d4b71a6	0.04966893
174	0xbaa2631e	-0.0012389158
175	0xbd080594	-0.033208445
176	0xbd075d7d	-0.03304814
177	0xbd66240f	-0.056186732
178	0xbd7b278b	-0.061317008
179	0x3d89309a	0.06698723
180	0xbdb37dbc	-0.08764216
181	0x3d97d8a1	0.074143656
182	0x3d65942f	0.056049522
183	0xbce2ece8	-0.027700856
184	0xbc578e71	-0.013156519
185	0xbd0b8b82	-0.034068592
186	0xbdaec408	-0.08533484
187	0x3c05df97	0.008170984
188	0xbd9f1981	-0.07768536
189	0x3b3eb274	0.0029098066
190	0xbd10b987	-0.035333183
191	0xbda0df9e	-0.078551516
192	0xbdc04e8c	-0.093899816
193	0x3db9426c	0.09045872
194	0x3e1005b4	0.14064676
195	0x3de6aae2	0.11263062
196	0x3dd2763c	0.10276458
197	0x3be07961	0.006850407
198	0x3d2a52ad	0.041582752
199	0x3dfc0ee4	0.12307528
200	0xbc86f254	-0.016472973
201	0xbd275fda	-0.040862896
202	0x3d34bc71	0.044125024
203	0x3dad602d	0.0846561
204	0xbdeece84	-0.116604835
205	0x3dbfd07e	0.093659386
206	0x3e0fad6b	0.14030997
207	0xba9162fd	-0.0011092123
208	0xbdac17de	-0.0840299
209	0x3ca56c41	0.020193221
210	0xbdbe65db	-0.09296771
211	0x3dabf0af	0.08395516
212	0xbcd107d4	-0.025516428
213	0xbda83bdb	-0.082145415
214	0x3d5befd9	0.053695533
215	0xbc056b28	-0.008143224
216	0xbc323067	-0.010875798
217	0x3ddc29de	0.10750173
218	0xbda85fd4	-0.08221403
219	0x3db2b32c	0.087255806
220	0xbd97f12a	-0.07419045
221	0x3c606763	0.013696524
222	0xbd83baa7	-0.064320855
223	0x3da62bd3	0.081138276
224	0xbb1d23d3	-0.0023977652
225	0xbcd2e5ee	-0.025744405
226	0xbd44e5c5	-0.048070688
227	0x3dba609a	0.091004565
228	0xbdb37f03	-0.0876446
229	0x3d519aac	0.051172897
230	0x3d638c2f	0.05555361
231	0x3d665975	0.056237657
232	0x3d80c766	0.06288032
233	0xbd16b0c9	-0.03678969
234	0x3b27c43d	0.0025599145
235	0xbd43191d	-0.04763137
236	0xbdfde48b	-0.12397107
237	0x3d943ebc	0.07238528
238	0xbe0883fa	-0.13331595
239	0x3d191205	0.0373707
240	0x3dbc44d6	0.09192817
241	0xbd04c2d6	-0.032412373
242	0x3d1435ab	0.036183994
243	0x3dda1f75	0.10650531
244	0x3daf617d	0.08563516
245	0x3dc286cc	0.09498367
246	0xbdc7e96c	-0.097613186
247	0x3d382275	0.044954736
248	0xbd82105e	-0.06350778
249	0x3ccf44c7	0.02530135
250	0xbdd0ad48	-0.10189301
251	0x3c9f65b1	0.01945767
252	0x3d9bb128	0.07602149
253	0xbd95f761	-0.073225744
254	0xbc83fc00	-0.016111374
255	0xbd273b97	-0.040828314

gnn.conv1d_params1.bias f4 [16]
0	0xbc713653	-0.014722425
1	0xbdcbe2be	-0.09955357
2	0xbd6ae669	-0.057348642
3	0xbdbb474a	-0.09144457
4	0x3dec5c61	0.115410574
5	0x3cd3515e	0.025795635
6	0xbd0caafc	-0.03434275
7	0xb88af401	-6.625802e-05
8	0x3b072565	0.0020621654
9	0xbc8e955d	-0.017405206
10	0x3db31203	0.0874367
11	0xbd91ffd1	-0.07128871
12	0xbd91a61f	-0.07111763
13	0x3d57db0d	0.052699137
14	0x3cf526e9	0.02992578
15	0x3d81f2c1	0.0634513

gnn.conv1d_params2.weight f4 [32, 16, 5]
0	0x3dbc69bf	0.09199857
1	0x3c6fddbe	0.01464027
2	0xbd2ff399	-0.042956922
3	0x3d5d6e16	0.054060064
4	0x3d758129	0.05993763
5	0x3d95cdc8	0.0731464
6	0xbc9dae2b	-0.019248089
7	0xbd3a8d13	-0.045544695
8	0xbb3f2b41	-0.0029170068
9	0x3db36503	0.08759501
10	0x3c85cb7c	0.01633238
11	0x3db64b8a	0.08901127
12	0xbd743248	-0.059618264
13	0x3d76078d	0.060065795
14	0xbd92caab	-0.07167562
15	0x3b9fb985	0.0048744106
16	0x3daef1f8	0.085422456
17	0xbdbde119	-0.092714496
18	0x3dc88199	0.09790344
19	0x3dad56fe	0.08463858
20	0x3da27ced	0.07933984
21	0xbd4bdf41	-0.04977346
22	0x3d89f6b4	0.06736508
23	0x3cc119ed	0.023571933
24	0xbd96b8d3	-0.07359471
25	0x3e163196	0.14667353
26	0xbd3906c6	-0.045172475
27	0x3e2ad66b	0.16683356
28	0x3d3b06c5	0.045660753
29	0x3d8a1ec8	0.06744152
30	0xbc806f2e	-0.015678015
31	0xbe28bb66	-0.16477737
32	0x3ce848e0	0.028355062
33	0xbdc4b7c5	-0.09605364
34	0xbd309f7d	-0.04312085
35	0xbce522a8	-0.027970627
36	0xbd81e268	-0.06342012
37	0xbc889f3e	-0.016677495
38	0x3e059052	0.13043335
39	0x3d78595d	0.0606321
40	0xbdca0d4a	-0.09865816
41	0x3d562e39	0.052290175
42	0x3c67a835	0.014139225
43	0x3d2ab4d1	0.041676346
44	0x3c93a6fc	0.01802396
45	0xbd9e4a4a	-0.07729013
46	0xbe00445c	-0.12526077
47	0x3d6f3344	0.0583985
48	0x3dde361a	0.10850163
49	0xbdbbff11	-0.091795094
50	0x3da68fc8	0.08132893
51	0x3d34be5c	0.044126853
52	0x3d9a39d7	0.07530563
53	0x3de1d1aa	0.11026318
54	0x3da71e19	0.081600375
55	0x3c45f224	0.012081657
56	0xbd5c4835	-0.0537798
57	0xbd7d66a3	-0.06186546
58	0xbdb9fb9c	-0.09081194
59	0x3bac4ecd	0.005258417
60	0x3c6f63a3	0.014611158
61	0x3cb0f699	0.021601962
62	0xbd95a5a5	-0.07306985
63	0x3d9ec6e5	0.0775278
64	0xbd7976b4	-0.06090422
65	0xbd9f1095	-0.07766835
66	0x3dfa7a63	0.12230375
67	0x3d29cf8e	0.041457705
68	0x3df61294	0.12015262
69	0x3b25209f	0.0025196446
70	0x3e08f5fd	0.13375087
71	0x3c9eabf0	0.019369096
72	0xbd0076aa	-0.031363167
73	0x3dac3c7a	0.084099725
74	0x3c7f5e48	0.015586443
75	0xbd98b10f	-0.07455646
76	0xbd67fd97	-0.056638326
77	0x3d02df9f	0.031951543
78	0x3da532d9	0.08066339
79	0xbdb84344	-0.08997205
80	0xbc6cd911	-0.01445605
81	0x3e18fdb6	0.14940533
82	0x3e2868ca	0.16446224
83	0x3d4eb63d	0.050466765
84	0xbd2982cc	-0.041384503
85	0x3d1dcfe4	0.038528338
86	0x3db95e31	0.09051169
87	0xbd960d84	-0.07326797
88	0x3cda2a7e	0.02663159
89	0x3d7e45ba	0.062078215
90	0x3d41db4f	0.04732829
91	0x3dcc2795	0.09968487
92	0xbdff146b	-0.12455066
93	0x3dab7a0a	0.083728865
94	0xbc28d41e	-0.010304479
95	0xbd621aed	-0.05520146
96	0x3cd850ba	0.02640568
97	0xbcd11d2c	-0.025526606
98	0x3dc989b1	0.09840716
99	0xbda184cf	-0.07886659
100	0xbbf5c2d5	-0.0075000324
101	0xbd65869a	-0.05603657
102	0x3d09a9df	0.033609267
103	0x3d8f3ae3	0.069936536
104	0x3d80a3af	0.0628122
105	0x3dab6e15	0.08370606
106	0xbd37ced3	-0.044874977
107	0x3d9fd1b3	0.07803669
108	0xbd1d71ef	-0.038438734
109	0x3c9a9e67	0.01887436
110	0xbd0f4874	-0.034981206
111	0xbe0d0903	-0.13772969
112	0xbde9a5aa	-0.11408551
113	0xbd84e6e3	-0.06489351
114	0xbdcaa1bb	-0.09894129
115	0xbd49a2e3	-0.049227607
116	0xbd347b83	-0.044063102
117	0x3d7dff88	0.06201127
118	0x3da3615c	0.07977554
119	0xbda0f563	-0.07859304
120	0xbd65c6a4	-0.05609764
121	0xbb56b211	-0.0032759944
122	0xbd4e4f7f	-0.050368782
123	0x3b5febba	0.0034167604
124	0xbc4f8f1f	-0.0126684
125	0xbddb0c13	-0.10695662
126	0x3db4991e	0.08818267
127	0xbd26c510	-0.040715277
128	0xbcc18313	-0.023622071
129	0x3c43a43c	0.011941012
130	0x3bcbe19b	0.0062219626
131	0x3c5a87ff	0.013338088
132	0x3ca3a076	0.019973975
133	0xbdb3bce5	-0.08776263
134	0xbdd4cc2d	-0.10390506
135	0x3dbceb58	0.09224576
136	0xbdbe5220	-0.09293008
137	0xbcfbf0ce	-0.030754473
138	0x3d86ee43	0.065884136
139	0x3dae30a2	0.0850537
140	0x3d9ccb17	0.07655924
141	0xbd27a48b	-0.040928405
142	0x3d33df55	0.043914158
143	0x3d44ba95	0.0480295
144	0xbd9d324c	-0.07675609
145	0xbd826c47	-0.063683085
146	0x3c47b094	0.012188096
147	0x3dd29875	0.10282985
148	0xbc817636	-0.015803438
149	0x3ca77bf4	0.020444848
150	0x3dd6f17d	0.10495279
151	0x3da0c22f	0.078495376
152	0x3d2aec63	0.041729342
153	0xbc916525	-0.017748425
154	0x3d4cf714	0.05004032
155	0xbe20d918	-0.15707815
156	0xbd0b7a9a	-0.03405247
157	0xbc890f88	-0.016731039
158	0xbd3304b7	-0.04370567
159	0x3dba3433	0.090919875
160	0xbdec05ba	-0.1152453
161	0xbda14b5c	-0.07875702
162	0x3d6aa5d5	0.057287056
163	0xbdbaeefb	-0.09127613
164	0x3c9e7975	0.019345025
165	0x3c3665f6	0.011132708
166	0x3dbbd80c	0.09172067
167	0x3ac5e946	0.0015099428
168	0xbd0aad4f	-0.033856686
169	0xbd2ae533	-0.041722488
170	0xbc83d41e	-0.016092356
171	0xbdbd2e55	-0.09237353
172	0x3d46639a	0.04843483
173	0xbda92ac7	-0.08260112
174	0xbd90f6c8	-0.0707832
175	0xbcf8239e	-0.030290421
176	0xbcc0d9f3	-0.023541426
177	0x3d195409	0.037433658
178	0xbd9d80d4	-0.07690588
179	0x3ddddb2d	0.1083282
180	0xbdad0478	-0.08448118
181	0x3e039a1b	0.12851755
182	0x3c62f3d2	0.013852077
183	0x3d3177e0	0.043327212
184	0x3d78b706	0.06072142
185	0xbd9ff097	-0.07809561
186	0xbdd2a92a	-0.10286172
187	0x3d2d5f24	0.04232706
188	0x3c08c35a	0.008347357
189	0xbcb52936	-0.022114377
190	0x3d5035fa	0.050832726
191	0xbc1b0e5d	-0.009463874
192	0x3dadc3dc	0.08484623
193	0xbdbdb252	-0.092625275
194	0xbd65ac91	-0.056072775
195	0x3dafc4a5	0.08582429
196	0x3d93802e	0.07202183
197	0xbcf3ad99	-0.029745864
198	0xbe26e385	-0.1629773
199	0x3da38500	0.07984352
200	0x3df380cb	0.118898
201	0xbcd8e954	-0.026478447
202	0x3dd8f7bd	0.10594127
203	0xbdbfe2cd	-0.09369431
204	0x3dbcf360	0.092261076
205	0x3e1b16bd	0.15145393
206	0x3b9f902a	0.0048694806
207	0x3d7cbbce	0.061702542
208	0xbd920752	-0.071303025
209	0xbcfb09f6	-0.030644398
210	0x3d1955f5	0.03743549
211	0xbd50787f	-0.050896164
212	0x3d4de729	0.05026928
213	0x3d2f2247	0.0427573
214	0xba32398d	-0.0006798737
215	0x3d520710	0.051276267
216	0xbdc98805	-0.09840397
217	0x3c322ed6	0.010875424
218	0xbd6f30a0	-0.05839598
219	0x3b5aae6c	0.0033368124
220	0xbd16caa3	-0.036814343
221	0xbd78d3e0	-0.060748935
222	0xbce46cd7	-0.02788393
223	0xbdd2a46f	-0.102852695
224	0xbd4d5bf1	-0.05013651
225	0xbcd55979	-0.02604364
226	0x3e090d86	0.13384065
227	0xbd515d24	-0.051114216
228	0xbcecfa69	-0.028927999
229	0xbc080d94	-0.0083040185
230	0xbd996e94	-0.07491794
231	0x3d2dc7fd	0.04242705
232	0xbda23520	-0.07920289
233	0x3c845ef5	0.01615856
234	0xbcac9fde	-0.021072324
235	0x3d9f8598	0.07789153
236	0x3dd9613d	0.1061425
237	0x3dcf847c	0.10132691
238	0x3dcde61f	0.10053658
239	0xbab64770	-0.0013906788
240	0xbde2f76c	-0.11082348
241	0xbd15094d	-0.036385823
242	0xbddcedb3	-0.10787525
243	0x3c981452	0.018564377
244	0xbdced0a3	-0.10098388
245	0xbc9527e8	-0.018207505
246	0x3dbc9dc3	0.09209778
247	0xbb8002ce	-0.0039065843
248	0x3afb0898	0.0019152341
249	0x3dd470a5	0.10373048
250	0xbd62ffea	-0.05541984
251	0xbdd447c8	-0.10365254
252	0x3d72f8ed	0.059319425
253	0x3d9ba34d	0.075995065
254	0xbc198d3c	-0.009372052
255	0xbdb51216	-0.0884134

gnn.conv1d_params2.bias f4 [32]
0	0xbde2c63b	-0.11072966
1	0x3d4c85eb	0.0499324
2	0x3b53fad6	0.0032345555
3	0xbd90476a	-0.07044871
4	0x3e0911eb	0.13385741
5	0x3dde6c40	0.10860491
6	0x3ca536a6	0.02016766
7	0xbdf13d8c	-0.11779317
8	0x3c48d860	0.012258619
9	0x3d937f6c	0.07202038
10	0x3c6fb120	0.014629632
11	0xbdddceea	-0.10830481
12	0x3deadab4	0.114674956
13	0xbc6bd5cd	-0.014394236
14	0xbcd5cb8a	-0.026098032
15	0xbdc390eb	-0.09549125
16	0x3d7ade41	0.061247114
17	0x3d1a3d59	0.037656162
18	0x3d780dbf	0.060559984
19	0x3d7b9d21	0.061429147
20	0x3d6594ff	0.056050297
21	0xbd86659e	-0.06562351
22	0xbd85238b	-0.0650092
23	0x3dac29f5	0.0840644
24	0x3d08eb52	0.033427544
25	0xbddbe4cf	-0.10737001
26	0xbda93dc4	-0.08263734
27	0x3da6b734	0.08140412
28	0xbd28e121	-0.041230325
29	0x3d54bf84	0.051940456
30	0x3cc391da	0.023873258
31	0x3ce94c07	0.028478635

mlp.h1_weights.weight f4 [128, 32]
0	0x3bec9354	0.0072197113
1	0x3e213d5c	0.15746063
2	0x3d6283ef	0.055301603
3	0xbdcf88df	-0.10133528
4	0xbcb80eb2	-0.022467945
5	0xbd93f536	-0.07224505
6	0x3ceb2baf	0.028707353
7	0xbc9f11a2	-0.019417588
8	0x3cf11d17	0.029432816
9	0x3e2f671a	0.17129174
10	0xbc07fb62	-0.00829968
11	0x3e2e77a2	0.17037824
12	0x3c3ef961	0.011656136
13	0xbdabe51f	-0.08393311
14	0x3e4417bb	0.19149677
15	0x3d5e0121	0.054200295
16	0xbe34cc03	-0.1765595
17	0x3cb1c311	0.02169946
18	0xbe6f819c	-0.23389286
19	0xbde952b4	-0.113927275
20	0xbda17069	-0.07882769
21	0x3d9172fa	0.07102008
22	0xbd6e9354	-0.05824597
23	0x3e29ad89	0.16570105
24	0xbdd5a5f8	-0.10432047
25	0xbd4018a7	-0.04689851
26	0xbde9d33f	-0.11417245
27	0xbd34a27e	-0.044100277
28	0x3e0bb70c	0.13644046
29	0x3e08c6f5	0.13357146
30	0x3d7fd5dd	0.062459815
31	0x3e2e9f0e	0.17052862
32	0xbd49665c	-0.049169883
33	0x3d60017b	0.054688912
34	0x3d071a51	0.03298408
35	0xbcad47c0	-0.021152377
36	0x3e53619e	0.20642707
37	0xbcb4e9ea	-0.022084195
38	0x3d8bcf3c	0.06826636
39	0x3d44dab8	0.04806015
40	0xbe1e03af	-0.15431093
41	0x3cb11904	0.021618374
42	0xbe0f005b	-0.1396498
43	0xbe361bbd	-0.17784019
44	0xbbf4db60	-0.0074724406
45	0xbd3c117c	-0.045915112
46	0xbc900de2	-0.017584745
47	0xbd3e65ab	-0.046483677
48	0xbe06913f	-0.13141344
49	0x3e136697	0.14394604
50	0xbe367a00	-0.17819977
51	0xbc39fee9	-0.011352279
52	0x3da2e2cc	0.07953414
53	0x3e37ccb4	0.17949182
54	0xbcca64a0	-0.024706185
55	0x3d92929d	0.071568705
56	0xbe3fdd8e	-0.1873686
57	0xbe39b80e	-0.18136618
58	0xbd9d9a26	-0.07695417
59	0x3e0cb71e	0.13741729
60	0xbad1b1fe	-0.001599848
61	0x3e43dbdf	0.19126843
62	0x3e682adb	0.22672598
63	0x3e23fd85	0.16014679
64	0x3e203949	0.15646853
65	0x3dfcffb3	0.12353458
66	0x3d9ff98c	0.07811269
67	0xbe12f7b1	-0.143523
68	0xbd1a73ca	-0.03770808
69	0x3db041b4	0.08606282
70	0xbe3470da	-0.17621174
71	0xbd6d87e1	-0.057990912
72	0xbe3f73c6	-0.18696508
73	0x3dd561e8	0.10419065
74	0x3e1d5deb	0.15367858
75	0xbd96fcfb	-0.07372471
76	0xbe048bea	-0.12943998
77	0xbde26abb	-0.110555135
78	0xbd154f25	-0.03645243
79	0x3d645415	0.05574425
80	0x3e185f67	0.14880143
81	0xbe03f45c	-0.12886184
82	0x3c83db74	0.016095854
83	0x3da8a110	0.08233845
84	0xbe230b65	-0.15922315
85	0xbddd6453	-0.10810151
86	0x3e048a56	0.12943396
87	0xbdf5f87a	-0.12010284
88	0x3c069414	0.0082140155
89	0xbb4bac7b	-0.0031078148
90	0x3d3525fe	0.044225685
91	0x3e61b6f3	0.22042446
92	0xbd1c7801	-0.038200382
93	0xbc52884d	-0.012849879
94	0xbe0001d7	-0.12500702
95	0x3e34605a	0.1761488
96	0x3e30fd00	0.17284012
97	0x3e389c3c	0.18028349
98	0xbdd8affb	-0.105804406
99	0x3e0ccc15	0.13749726
100	0xbe29070f	-0.16506599
101	0xba7b8ed9	-0.0009596176
102	0xbd4cefc3	-0.050033342
103	0x3d1edcc3	0.038784754
104	0xbd3b0464	-0.045658484
105	0xbe28736e	-0.16450283
106	0xbda017e6	-0.07817058
107	0xbbaa030a	-0.0051883506
108	0xbdd3de8b	-0.10345181
109	0xbcd23698	-0.025660798
110	0xbdc7a0a2	-0.09747435
111	0xbe16eedb	-0.14739554
112	0x3e2dbef8	0.1696738
113	0xbe251cc2	-0.16124251
114	0x3dc6ba74	0.09703532
115	0xbdee7b5a	-0.11644621
116	0xbe15bff1	-0.14624001
117	0xbc73fd8c	-0.014891993
118	0x3e32dd2f	0.17467187
119	0xbd3cf082	-0.046127804
120	0xbc3e4eff	-0.011615514
121	0x3db19711	0.08671392
122	0x3e3e87e2	0.18606523
123	0x3e03ae79	0.12859525
124	0xbe103be7	-0.14085351
125	0x3e3f72d2	0.18696144
126	0x3c0a539b	0.008442785
127	0x3d0e909f	0.03480589
128	0x3d547b86	0.051875614
129	0xbe84d2e1	-0.25942138
130	0xbcd4e9c9	-0.025990384
131	0x3e032ca8	0.12810004
132	0x3d9389a7	0.072039895
133	0x3e142c7d	0.14470096
134	0x3d70b054	0.05876191
135	0x3ccb28bb	0.024799695
136	0x3a13b44f	0.0005634473
137	0xbb8b6632	-0.004254126
138	0x3dabf9ff	0.08397292
139	0xbd87438c	-0.066046804
140	0x3e14ec4f	0.1454327
141	0xbe3e01d0	-0.18555379
142	0xbd32bf40	-0.04363942
143	0x3d15ab6d	0.036540437
144	0xbe396523	-0.18104987
145	0xbe27df4e	-0.16393778
146	0x3de22bb6	0.110434934
147	0xbe038784	-0.12844664
148	0x3e28ddbf	0.1649084
149	0x3d305bd0	0.04305631
150	0xbd258226	-0.040407322
151	0x3e00bf54	0.12572986
152	0xbe2e05f0	-0.16994452
153	0xbe391640	-0.18074894
154	0x3daa6209	0.0831948
155	0xbe157800	-0.14596558
156	0x3d9e5cb3	0.07732525
157	0x3d10edc0	0.035382986
158	0xbe1db60e	-0.1540148
159	0x3d5b376a	0.053519644
160	0xbdeb031d	-0.11475203
161	0xbc226b9f	-0.009913354
162	0xbe118139	-0.14209451
163	0xbe189561	-0.14900734
164	0x3c422674	0.011849988
165	0xbda88334	-0.0822815
166	0x3d14149f	0.03615248
167	0x3e3c34f7	0.1837958
168	0xbd97963b	-0.07401701
169	0xbccb2798	-0.024799153
170	0x3e6afe69	0.22948612
171	0x3e218ff7	0.15777574
172	0xbda7a1f4	-0.08185187
173	0xbc80dac4	-0.015729316
174	0xbda88d6b	-0.08230098
175	0xbd648858	-0.05579409
176	0x3e1a56c1	0.15072156
177	0x3e244da5	0.16045244
178	0x3db57e2a	0.088619545
179	0xbdc901a1	-0.09814764
180	0xbe2b0527	-0.16701184
181	0x3d6ad8b3	0.057335567
182	0x3c0fe29e	0.008782057
183	0xbe081bb0	-0.13291812
184	0xbdb22619	-0.08698673
185	0xbca6befe	-0.020354744
186	0xbdfee328	-0.1244567
187	0x3e12e413	0.14344816
188	0xbe3a476b	-0.18191306
189	0xbdab33cf	-0.08359491
190	0xbd363f8f	-0.044494208
191	0x3d80e8f7	0.062944345
192	0xbe2c0510	-0.16798806
193	0x3e1d4e7a	0.15361968
194	0x3d9521fd	0.072818734
195	0xbe261dd0	-0.1622231
196	0x3e717873	0.23581104
197	0x3d9b5011	0.07583631
198	0xbca1a13f	-0.019730208
199	0xbd6dd327	-0.0580627
200	0x3e0635f7	0.13106523
201	0x3d425f85	0.047454376
202	0xbd192a59	-0.0373939
203	0x3dc622b3	0.09674587
204	0x3e144cc6	0.14482412
205	0xbe01e799	-0.12686004
206	0x3e7bb4b2	0.24580649
207	0xbe31da38	-0.173684
208	0xbe506452	-0.20350769
209	0xbd70955f	-0.0587362
210	0xbe3fd944	-0.18735224
211	0x3d82ad88	0.06380755
212	0x3dc9188c	0.09819135
213	0x3e394dc0	0.18096066
214	0x3e14b6cd	0.14522858
215	0xbe411730	-0.18856502
216	0xbd222a88	-0.039591342
217	0xbcd2f89c	-0.025753312
218	0x3e441c30	0.19151378
219	0x3d5f92cd	0.05458336
220	0x3c3d6474	0.011559594
221	0x3e10abda	0.14128056
222	0x3e7b2cf3	0.24528866
223	0xbc8a7953	-0.016903555
224	0xbd5019be	-0.0508058
225	0x3e07e364	0.13270336
226	0xbdd0504a	-0.10171564
227	0xbd011904	-0.031517997
228	0x3c85f6ae	0.016352978
229	0xbe064d68	-0.13115466
230	0x3e0f9d73	0.14024906
231	0xbdeb8051	-0.11499084
232	0xbda893b8	-0.082313
233	0xbe5feda3	-0.21867995
234	0x3cd49356	0.025949161
235	0x3d191a16	0.037378393
236	0x3cc49d30	0.024000734
237	0x3bf74a45	0.0075466954
238	0xbd11bb44	-0.03557898
239	0xbcabf461	-0.020990552
240	0x3dc478ae	0.0959333
241	0x3e038f3a	0.12847605
242	0x3bd13b4c	0.0063852426
243	0xbd060726	-0.03272166
244	0xbd4413c2	-0.047870405
245	0xbd1362fa	-0.035983063
246	0xbc5f8453	-0.013642388
247	0x3c0534c6	0.008130258
248	0x3dd92f67	0.106047444
249	0xbdc9a6c5	-0.09846262
250	0xbcb1e20e	-0.021714237
251	0x3a149ea8	0.00056693936
252	0x3c925a68	0.017865375
253	0xbc058460	-0.008149236
254	0xbe726e27	-0.23674832
255	0x3def1d0d	0.11675463

mlp.h1_weights.bias f4 [128]
0	0x3be6962d	0.0070369453
1	0x3b811b9b	0.0039400584
2	0x3c618b16	0.013766071
3	0x3bde7a78	0.0067895018
4	0xbcb35eb5	-0.021895746
5	0xbb304910	-0.0026899017
6	0x3ca122e5	0.01966996
7	0xbbf2a04b	-0.0074043623
8	0x3c14f5ee	0.009091837
9	0x3c551ff1	0.013008104
10	0x3c1a7b37	0.009428791
11	0xbb481f40	-0.0030536205
12	0xbc9020a6	-0.017593693
13	0xbbd5c79e	-0.0065240404
14	0x3cc0ea4d	0.023549223
15	0xbbd2e97b	-0.0064365244
16	0x00000000	0.0
17	0xbb819610	-0.0039546564
18	0xbc6f5de9	-0.014609792
19	0xbc2b5f4c	-0.010459732
20	0xbc473436	-0.012158444
21	0x3b59b0fa	0.0033217059
22	0x3b045f51	0.0020198415
23	0x3cc6b72c	0.024257265
24	0xbac713f1	-0.0015188438
25	0xbb9a67dd	-0.0047120885
26	0x3c126d8e	0.008937253
27	0xbd14bb86	-0.03631165
28	0xbb2ee8cb	-0.0026689048
29	0xbc80c025	-0.015716622
30	0x3c0c5287	0.008564598
31	0xbb4ac412	-0.003093962
32	0xbc3cff38	-0.011535458
33	0x3bacaeb1	0.0052698483
34	0xbbbbb54d	-0.0057284
35	0xbb8332ec	-0.004003873
36	0x3acc1add	0.0015571971
37	0xbb8f2bda	-0.004369241
38	0x3c6833d5	0.014172514
39	0x3c030a49	0.007998058
40	0xbbdc8082	-0.0067291865
41	0xba31c238	-0.0006780955
42	0xbcba17b0	-0.022716373
43	0x00000000	0.0
44	0x3ce01c49	0.027357237
45	0x3ca26983	0.019825703
46	0x3b905a5f	0.0044053043
47	0xbc4ef4fd	-0.012631652
48	0xbaba606f	-0.0014219413
49	0xbcc66da4	-0.024222203
50	0x00000000	0.0
51	0x3c87c2fe	0.016572472
52	0xbcb1d1f3	-0.021706557
53	0xbc1b8e67	-0.009494401
54	0xbc835911	-0.016033681
55	0x3c4d9d13	0.012549656
56	0xbc828d48	-0.015936509
57	0xbb0048e2	-0.0019574692
58	0x3d1c62e6	0.038180254
59	0x3c2cadb1	0.010539458
60	0x3c573730	0.013135716
61	0xbcd8826e	-0.026429381
62	0x3c0e7f57	0.008697352
63	0x3c3851f2	0.011250006
64	0x3c91f5e3	0.017817443
65	0x3c5da396	0.013527771
66	0x3ba08967	0.004899192
67	0x3bb71fb2	0.005588495
68	0xbc6db74a	-0.014509032
69	0x3af24c82	0.0018485936
70	0xba0dc0ce	-0.0005407453
71	0x3b639f67	0.0034732462
72	0x3937ae12	0.00017517086
73	0xbc5d799e	-0.013517765
74	0xbcee5593	-0.02909354
75	0xbb7d1688	-0.0038618166
76	0xba85774f	-0.0010182651
77	0x00000000	0.0
78	0x3be7d538	0.007074978
79	0xbc6c2b4a	-0.014414618
80	0xbb1c7f85	-0.0023879719
81	0xbab0d9cc	-0.0013492643
82	0x3bd872d3	0.006605485
83	0xbcc28267	-0.023743821
84	0x3c8c6fdd	0.017143184
85	0xbcce05c8	-0.025149241
86	0xbbcaf4c4	-0.006193729
87	0x3d755fc8	0.059905797
88	0x3c0dd6ef	0.008657201
89	0xbc0b0d32	-0.008487033
90	0x3bd453e6	0.006479728
91	0x3b56cb17	0.003277486
92	0x3bd2a9cc	0.006428933
93	0x3c00a504	0.007851843
94	0xbaf260e2	-0.0018492008
95	0xbc0e59b1	-0.008688376
96	0xbcb7cba4	-0.02243597
97	0xbc49914a	-0.012302706
98	0xbc98b56f	-0.018641202
99	0x3b8a9d91	0.004230209
100	0xbc451776	-0.012029519
101	0x3b7e1909	0.0038772246
102	0xbc58f0a6	-0.013240969
103	0x3d01da7d	0.031702507
104	0xbc891cff	-0.01673746
105	0x3ccb2e6e	0.024802413
106	0x3bd6c4ac	0.006554207
107	0xbc0bd43e	-0.008534489
108	0xbc4c5235	-0.012470772
109	0x3cdcaf66	0.026939105
110	0x3c2fdc4a	0.010733673
111	0xbb88aee2	-0.0041712383
112	0xbb8cd157	-0.004297416
113	0xbc9a637e	-0.01884627
114	0xba471172	-0.0007593847
115	0xbd05871f	-0.032599565
116	0xbbce531d	-0.006296529
117	0xbbe5109d	-0.006990506
118	0x3cd9440b	0.026521703
119	0xbba29cc8	-0.0049625374
120	0x3b394d52	0.0028274846
121	0xbc6a9031	-0.0143166045
122	0x3caf3ad4	0.021390356
123	0xbaa5fb21	-0.0012663343
124	0x3c5bdeb5	0.013419797
125	0xbc6aa224	-0.014320884
126	0xbcc0d8b8	-0.02354084
127	0xbcf0db8b	-0.029401561
