Python/data/train_graph_model.pth (torch, 67061 bytes, 15 tensors)

gnn.conv_params.0.weight f4 [32, 19]
0	0xbd0b6c4b	-0.034038823
1	0x3e56685a	0.20938244
2	0xbf3e3ef7	-0.74314827
3	0xbe3a34f9	-0.1818427
4	0x3ceecda2	0.029150788
5	0x3d0107d4	0.031501606
6	0xbe6459cc	-0.2229988
7	0x3e1cfd5a	0.15331021
8	0xbe97b429	-0.2962964
9	0x3eab55c6	0.33463877
10	0x3e7f2856	0.2491773
11	0xbd4625c5	-0.048375864
12	0x3e88e8db	0.26740155
13	0xbea5473b	-0.32280907
14	0x3d9d3a0f	0.076770894
15	0xbe995f89	-0.299557
16	0x3e97a0ef	0.2961497
17	0xbe1ab882	-0.15109447
18	0x3e54b682	0.20772746
19	0x3dd38186	0.10327439
20	0xbe5632e7	-0.20917855
21	0x3f0601eb	0.52346677
22	0x3e61ba0a	0.22043625
23	0xbe2ec416	-0.17066988
24	0x3df009c9	0.11720616
25	0x3e99b337	0.30019543
26	0xbd7310a9	-0.05934206
27	0x3d803a14	0.062610775
28	0x3dc65e15	0.096859135
29	0x3e638a1d	0.22220655
30	0x3cc47fd9	0.023986744
31	0x3ca96ab5	0.020680765
32	0xbe83e8b0	-0.25763464
33	0xbecbd8ca	-0.39813834
34	0xbdccbef6	-0.099973604
35	0xbe6653be	-0.22492883
36	0xbd97a466	-0.074044034
37	0x3e4eec13	0.20207243
38	0xbe393826	-0.18087825
39	0x3e8b1f77	0.27172443
40	0xbb8c55ab	-0.0042826734
41	0x3e94fd5f	0.29099557
42	0xbe737e30	-0.23778605
43	0x3ea5fc0f	0.32418868
44	0xbebbd8b3	-0.36688766
45	0xbe88e620	-0.2673807
46	0x3e003a91	0.12522341
47	0x3e28efe7	0.16497765
48	0xbe992fcf	-0.29919288
49	0xbe1518b5	-0.14560206
50	0x3eab34cd	0.3343872
51	0x3e2c1976	0.16806588
52	0xbe5c3688	-0.21505177
53	0xbdd1a521	-0.10236574
54	0xbd21634b	-0.039401334
55	0xbe35df98	-0.17761075
56	0x3d23f5e4	0.04002942
57	0xbe1cad88	-0.15300572
58	0xbcb99f0d	-0.02265885
59	0x3f020ce1	0.508009
60	0x3ebd2b5c	0.36947143
61	0xbe45d072	-0.19317797
62	0x3d5af499	0.053455923
63	0xbecb0a24	-0.39656174
64	0xbd9a2c1b	-0.07527944
65	0xbdd97da4	-0.10619667
66	0xbe0a9d51	-0.13536574
67	0x3c9a9bbb	0.018873086
68	0x3ea67d5b	0.32517514
69	0x3e675e38	0.22594535
70	0xbdefecf9	-0.11715121
71	0xbda28b4f	-0.07936727
72	0x3e755751	0.2395909
73	0x3c8ccc49	0.017187255
74	0xbe9fb05a	-0.31189233
75	0xbe3cb9b4	-0.18430215
76	0x3db5cbad	0.08876739
77	0x3e2f999b	0.1714844
78	0x3edf874c	0.4365791
79	0x3e8c3ddf	0.27390954
80	0x3e92872a	0.28618747
81	0x3cf0e94a	0.029408116
82	0x3e2c833e	0.1684694
83	0x3ea58e21	0.32334998
84	0x3e3c9e67	0.184198
85	0x3eadf235	0.33973852
86	0xbe81eabe	-0.25374407
87	0xbd3f80f4	-0.04675384
88	0xbe117c4b	-0.1420757
89	0x3dc5fbe0	0.09667182
90	0x3db182ac	0.08667502
91	0xbbe65c30	-0.0070300326
92	0x3dcd2b2d	0.10018001
93	0xbe3c8518	-0.18410146
94	0x3eaf1d28	0.34201932
95	0xbea9aac6	-0.33138102
96	0x3e775912	0.24155071
97	0x3f1d8311	0.61528116
98	0x3e38a294	0.18030769
99	0x3e7ec319	0.24879111
100	0x3e90cae4	0.28279793
101	0xbd539dcb	-0.051664155
102	0x3e20a1af	0.15686677
103	0xbe75181c	-0.23934978
104	0x3e0e84c2	0.1391783
105	0x3e448370	0.19190764
106	0x3ea6a409	0.32547024
107	0xbe7180f3	-0.23584346
108	0x3e78cb07	0.24296199
109	0x3d39bd76	0.0453467
110	0x3e781bf5	0.24229415
111	0x3e950556	0.29105633
112	0xbc2f178e	-0.010686768
113	0xbe34642f	-0.17616342
114	0xbd9d6777	-0.0768575
115	0x3e472a15	0.19449647
116	0x3f02c832	0.51086724
117	0xbe4aa2f3	-0.19788723
118	0xbeb8d64c	-0.36100996
119	0xbe91c92a	-0.28473788
120	0x3d45cedd	0.048292983
121	0x3e542401	0.2071686
122	0x3e057904	0.13034445
123	0xbd406af0	-0.046976984
124	0x3de9c999	0.11415405
125	0x3deef6ea	0.11668189
126	0xbd5f7987	-0.054559257
127	0xbe866230	-0.26246786
128	0x3d8b2790	0.06794655
129	0xbe013d2d	-0.12620993
130	0x3e8dd0d3	0.27698383
131	0x3e856596	0.26054066
132	0x3e74aff7	0.2389525
133	0x3e6b0cb4	0.22954065
134	0xbe08985a	-0.13339368
135	0xbea1492a	-0.31501132
136	0x3e942625	0.28935352
137	0xbe5e8b72	-0.21732882
138	0x3e298844	0.16555887
139	0x3daf237b	0.08551689
140	0xbca5077a	-0.020145167
141	0xbe365d63	-0.17809062
142	0xbe8942d2	-0.26808792
143	0x3e98da49	0.29854038
144	0x3daa0fc3	0.083037876
145	0xbe8828c0	-0.2659359
146	0xbe69842c	-0.22804326
147	0x3e0607d6	0.13088927
148	0xbc9b9167	-0.018990232
149	0xbe4cc75b	-0.19997923
150	0xbe13dc9f	-0.14439629
151	0x3e65d4fc	0.22444528
152	0xbda90ef5	-0.08254806
153	0xbe825eea	-0.2546304
154	0xbe85a0f5	-0.26099363
155	0xbd397169	-0.045274172
156	0x3da77941	0.08177424
157	0xbe821f3a	-0.2541445
158	0xbe279ce1	-0.16368438
159	0x3b88a9b6	0.0041706217
160	0x3d576e8f	0.05259567
161	0xbe8d6bac	-0.2762121
162	0xbe626f43	-0.22112755
163	0xbde1a9aa	-0.11018689
164	0x3da93e70	0.08263862
165	0x3ce30111	0.02771047
166	0xbb5440ce	-0.003238726
167	0xbeabaf11	-0.33532003
168	0xbd296c1f	-0.041362878
169	0x3e89548b	0.26822314
170	0xbe3d080b	-0.184601
171	0x3d22357a	0.03960178
172	0x3d9f90d7	0.07791298
173	0xbf1c4fd7	-0.61059326
174	0x3e65cbed	0.22441073
175	0x3e675f14	0.22594863
176	0x3eab43b7	0.334501
177	0x3e8e3599	0.27775267
178	0x3c1bc5e1	0.009507627
179	0x3ec2b40d	0.38027993
180	0x3d885cf7	0.06658357
181	0xbe57fa5f	-0.21091603
182	0xbe6c9367	-0.23103105
183	0xbe1ea1d3	-0.15491419
184	0xbd2241d0	-0.039613545
185	0xbebffd82	-0.374981
186	0xbe0e63ca	-0.13905254
187	0xbeadd2e4	-0.3394996
188	0x3e1fd923	0.15610175
189	0xbea77c14	-0.32711852
190	0x3d84e710	0.06489384
191	0xbe400bf0	-0.18754554
192	0xbe8e011a	-0.27735215
193	0x3e095e00	0.13414764
194	0x3e008b05	0.12553032
195	0xbeae7fcc	-0.34081876
196	0xbe2aa17a	-0.16663161
197	0xbe44bf5b	-0.19213621
198	0x3e899368	0.26870275
199	0xbccb5e6d	-0.0248253
200	0xbc50bc8f	-0.012740268
201	0x3e107f35	0.14111026
202	0xbe503fd6	-0.20336851
203	0xbe40f2d1	-0.18842627
204	0x3e294453	0.1652997
205	0x3e8c4fcd	0.27404633
206	0x3e85db5b	0.26143917
207	0x3e9a7b67	0.30172274
208	0xbe2f71c6	-0.17133245
209	0xbd2c3da3	-0.04205097
210	0x3eafb306	0.34316272
211	0x3f01698b	0.5055167
212	0xbe212791	-0.1573775
213	0xbe9372b9	-0.28798464
214	0x3e594dca	0.2122108
215	0x3dad4759	0.08460874
216	0xbe8b7c3d	-0.27243224
217	0xbeba16d9	-0.36345556
218	0x3e5f26f9	0.2179221
219	0xbea5bfc1	-0.3237286
220	0x3e6cf143	0.23138909
221	0x3e3bb7b1	0.18331791
222	0x3ca5709b	0.020195296
223	0x3df8adea	0.121425465
224	0x3e31ed9e	0.173758
225	0x3e0d7557	0.13814293
226	0xbcf3eed6	-0.029776972
227	0xbe0b14c7	-0.13582145
228	0xbe3e1af8	-0.18564975
229	0x3e43341a	0.19062844
230	0x3f026e9e	0.5095004
231	0x3e8c6ba4	0.27425873
232	0x3d6de40d	0.058078814
233	0xbe59e667	-0.21279298
234	0x3d35b36d	0.044360567
235	0xbda1fcc9	-0.07909543
236	0xbe8cec09	-0.2752383
237	0x3e74aaed	0.23893328
238	0x3c294fb2	0.010333942
239	0x3de9789e	0.11399959
240	0x3e148bd9	0.14506473
241	0xbe8a2ae7	-0.26985857
242	0x3e5d7e63	0.21630244
243	0xbe21bd5a	-0.15794888
244	0x3e372f1e	0.17889068
245	0x3e93c301	0.28859714
246	0x3c8980af	0.016784994
247	0xbe27bcaf	-0.16380571
248	0x3d4f4766	0.0506052
249	0xbbf9a739	-0.0076188114
250	0x3db60b44	0.088888675
251	0x3e071718	0.13192403
252	0x3dc0ab35	0.09407655
253	0xbecfb05f	-0.40564248
254	0xbe26688f	-0.16250823
255	0xbe7d58dd	-0.2474093

gnn.conv_params.0.bias f4 [32]
0	0xbcc2647b	-0.023729553
1	0xbc7ed429	-0.015553513
2	0x3d025fab	0.031829517
3	0x3c86bb16	0.016446631
4	0xbc6623ff	-0.014046668
5	0x3d04377d	0.03227948
6	0x3ce220ff	0.027603624
7	0xbdc30b2c	-0.09523615
8	0x3ce5c153	0.028046286
9	0x3c071ba2	0.008246334
10	0xbc32b90c	-0.010908376
11	0x3abc2342	0.0014353769
12	0x3c97826e	0.01849481
13	0x3db05872	0.086106196
14	0x3d5b22d5	0.053500015
15	0x3d9f5d20	0.07781434
16	0x3d16647f	0.036716934
17	0x3cac5374	0.021035887
18	0x3d89912a	0.06717141
19	0x3dde5e42	0.10857822
20	0x3bd88aac	0.006608328
21	0x3c5215c1	0.012822569
22	0xbdcf548f	-0.1012355
23	0xbd918a83	-0.07106497
24	0xbd50720e	-0.05089002
25	0x3cf5591c	0.029949717
26	0xbd867c7a	-0.06566711
27	0xbd49d32c	-0.049273655
28	0xbd2df94a	-0.04247407
29	0x3c46eb6f	0.012141093
30	0xbdd41565	-0.10355643
31	0xbb8c7e47	-0.0042875144

gnn.conv_params.1.weight f4 [32, 32]
0	0xbea3342f	-0.3187575
1	0x3e9ddf35	0.30834356
2	0x3e583640	0.21114445
3	0x3db1986e	0.08671652
4	0x3db5bf50	0.088743806
5	0xbe019b1f	-0.1265683
6	0x3e71bc83	0.23607068
7	0xbd20515e	-0.039140098
8	0xbe4bd055	-0.19903691
9	0x3caeb722	0.021327559
10	0xbe3d9388	-0.1851331
11	0xbdcca656	-0.099926636
12	0xbe24f606	-0.16109475
13	0xbe82d44e	-0.255526
14	0x3dcde895	0.10054127
15	0xbe3cad1f	-0.18425415
16	0x3e348dbb	0.17632191
17	0x3e8507a3	0.2598239
18	0x3d6eb556	0.058278404
19	0xbb175820	-0.0023093298
20	0xbd4dcef4	-0.050246194
21	0xbd52cada	-0.051462986
22	0xbd1e818d	-0.038697768
23	0x3e12e316	0.14344439
24	0x3e7a0a97	0.24418102
25	0x3e0f9fdf	0.1402583
26	0x3e4604ea	0.19337812
27	0xbe990b81	-0.2989159
28	0xbd9a1641	-0.07523776
29	0x3ec0026e	0.37501854
30	0xbddc71e9	-0.10763914
31	0xbd3a3dbb	-0.045469027
32	0x3da424ed	0.080148555
33	0xbe2f97bb	-0.17147724
34	0x3eaed2e4	0.34145272
35	0xbea9e262	-0.3318053
36	0xbe34fb10	-0.17673898
37	0xbe112d34	-0.141774
38	0xbce4f3f7	-0.027948363
39	0xbe1cabc6	-0.15299901
40	0x3e6a29e9	0.2286755
41	0x3d28e60f	0.041235026
42	0x3e795309	0.24348082
43	0xbe24d385	-0.16096313
44	0xbe1c1a7e	-0.15244481
45	0xbe86998f	-0.2628903
46	0x3e1d749d	0.15376516
47	0x3daa463d	0.08314178
48	0xbe40edeb	-0.18840759
49	0xbe9f7a39	-0.31147936
50	0x3ea727c7	0.32647535
51	0x3d4ff943	0.050774824
52	0x3d94d560	0.072672606
53	0xbd45204b	-0.0481265
54	0xbe8815ad	-0.26579037
55	0xbda78d43	-0.081812404
56	0xbe78a86b	-0.24282996
57	0x3d503624	0.050832883
58	0x3e1191b1	0.14215733
59	0x3dfe4876	0.124161646
60	0xbde856ed	-0.11344705
61	0xbec75833	-0.38934478
62	0xbc08d40a	-0.008351335
63	0x3e2a5e68	0.16637576
64	0x3d9b3874	0.07579127
65	0x3dcdbf95	0.10046307
66	0xbe94c93a	-0.29059774
67	0xbe952443	-0.29129228
68	0xbe43a48c	-0.19105738
69	0xbdcced65	-0.10006217
70	0xbe956844	-0.2918111
71	0x3d3e880f	0.046516474
72	0xbd2b15e6	-0.04176893
73	0xbbc15fa6	-0.0059012948
74	0x3c84554d	0.016153956
75	0xbc8f2836	-0.017475229
76	0xbe140fdb	-0.14459173
77	0xbe90a75e	-0.2825269
78	0x3d70e29a	0.058809854
79	0x3b226361	0.0024778473
80	0xbe38495c	-0.17996734
81	0xbe9709a4	-0.29499543
82	0x3cb72460	0.022356212
83	0xbe8236ea	-0.2543252
84	0xbcb99f5f	-0.022659002
85	0x3e12330d	0.14277287
86	0xbbcc2a54	-0.006230632
87	0x3e30bf4d	0.17260475
88	0x3e833c9d	0.25632182
89	0xbd7bd0ab	-0.0614783
90	0xbe557797	-0.20846401
91	0xbe9a6405	-0.30154434
92	0x3cca0307	0.024659647
93	0xbe1d87b0	-0.15383792
94	0x3e8d34cf	0.27579352
95	0xbcd9de58	-0.02659528
96	0xbd1ab83f	-0.037773367
97	0x3e633cdf	0.22191189
98	0x3df69aa1	0.12041212
99	0xbc80d53b	-0.015726676
100	0x3e1bcfcd	0.15215988
101	0xbe1268bf	-0.1429777
102	0xbea403e6	-0.32034224
103	0x3e5985ca	0.21242443
104	0xbd08640b	-0.033298533
105	0xbccf5350	-0.025308281
106	0x3c352a59	0.01105746
107	0xbe126f2f	-0.14300226
108	0xbe111222	-0.14167073
109	0x3df6b7d4	0.12046781
110	0x3e05633e	0.13026139
111	0xbe666a22	-0.22501424
112	0x3e8fc553	0.28080234
113	0xbe16c623	-0.1472402
114	0xbec30cbc	-0.38095653
115	0x3dbad18d	0.09122
116	0xbd887585	-0.0666304
117	0xbe6a834a	-0.22901645
118	0xbe6af802	-0.2294617
119	0xbe8d3485	-0.27579132
120	0x3d2d9231	0.042375747
121	0xbe68ea07	-0.22745524
122	0x3d36b0f1	0.04460234
123	0xbe59a7cc	-0.21255416
124	0x3e95dde6	0.29270858
125	0x3ea81e4d	0.32835618
126	0xbdb312b2	-0.087438
127	0x3e84a7c2	0.2590924
128	0x3e02214d	0.12708016
129	0x3ec32993	0.38117656
130	0xbed236ea	-0.4105752
131	0x3e20641d	0.1566319
132	0xbce60c27	-0.028081967
133	0xbe892a42	-0.26790053
134	0xbdd684b5	-0.104745306
135	0x3e60923b	0.21930782
136	0x3eaa5bd9	0.332732
137	0xbe1a4550	-0.15065503
138	0x3ed05662	0.40690905
139	0xbe080d6a	-0.13286367
140	0xbcd61433	-0.026132679
141	0xbe00bc17	-0.1257175
142	0xbe5dcafc	-0.21659464
143	0x3e4dae49	0.20086016
144	0x3d56dc5b	0.05245624
145	0xbea75f70	-0.3269
146	0xbeb9fc98	-0.36325526
147	0xbdd2124f	-0.10257398
148	0xbe09716b	-0.13422172
149	0x3e238283	0.15967755
150	0xbc928563	-0.01788587
151	0xbe049bbd	-0.12950034
152	0x3e5b3197	0.21405636
153	0xbebb5d3b	-0.36594567
154	0x3e882e80	0.26597977
155	0xbe6ff4fc	-0.23433298
156	0xbddb418a	-0.1070586
157	0xbe1ae8d5	-0.15127881
158	0xbe9b05e0	-0.3027792
159	0x3e10ba6c	0.14133614
160	0xbd98aa48	-0.074543536
161	0x3df73768	0.12071115
162	0xbd8b6191	-0.06805719
163	0x3e8e1df5	0.2775723
164	0x3dd5e82a	0.104446724
165	0x3e0ee732	0.13955382
166	0xbea38279	-0.3193548
167	0x3e66c280	0.22535133
168	0xbd44ac65	-0.04801597
169	0xbe43f190	-0.19135118
170	0xbd34339a	-0.043994524
171	0x3d3f379d	0.046683896
172	0x3e9d65ba	0.30741674
173	0xbe5511f8	-0.20807636
174	0xbda97080	-0.08273411
175	0x3e8bef04	0.27330792
176	0xbe785350	-0.24250531
177	0x3de44f33	0.111479186
178	0xbd84cbef	-0.0648421
179	0xbd396347	-0.045260694
180	0xbe9050ec	-0.28186738
181	0x3deca188	0.11554247
182	0x3e601083	0.21881299
183	0x3e55c396	0.20875391
184	0x3eb66b12	0.35628563
185	0x3dd2c621	0.10291696
186	0x3d840dea	0.064479664
187	0x3e62212b	0.22082965
188	0xbe4a6113	-0.19763593
189	0x3e6eda18	0.23325384
190	0x3c0d12db	0.0086104525
191	0x3e795f16	0.24352679
192	0xbe88b492	-0.26700264
193	0xbda44140	-0.08020258
194	0x3e007120	0.12543154
195	0xbdaa3a08	-0.0831185
196	0x3e930fbb	0.2872294
197	0x3e0d13ab	0.13777034
198	0x3cd9a37e	0.026567217
199	0xbe4c5680	-0.19954872
200	0xbdffe378	-0.12494558
201	0xbe1481a5	-0.1450258
202	0x3e6932fa	0.22773352
203	0xbdd19fbc	-0.10235545
204	0x3ea8eb2f	0.3299193
205	0xbe775f63	-0.24157481
206	0xbe9124d8	-0.28348422
207	0x3eb22b84	0.34798825
208	0x3e39690d	0.1810648
209	0xbe7bfa98	-0.24607313
210	0xbe9ad931	-0.3024383
211	0x3e9d6adc	0.3074559
212	0xbe393d9b	-0.18089907
213	0x3d8a8477	0.06763547
214	0x3dde0ef9	0.108426996
215	0xbd26a4c5	-0.04068448
216	0x3d3e9c8f	0.046536025
217	0x3d214e0a	0.039381064
218	0xbdf8048a	-0.12110241
219	0x3e4e51ae	0.20148346
220	0xbbbafd2a	-0.005706449
221	0x3ee0c087	0.43896887
222	0x3e56b917	0.20969044
223	0x3d8b43f6	0.06800072
224	0x3deae4ca	0.11469419
225	0x3d954aaf	0.072896354
226	0x3d0b64b6	0.034031592
227	0x3e6592bf	0.2241926
228	0xbe01fc5c	-0.12693924
229	0x3e9a8771	0.3018146
230	0x3dd9a153	0.10626473
231	0xbe8809ae	-0.26569885
232	0x3e0afa88	0.13572133
233	0x3e27b067	0.16375886
234	0xbe0626ca	-0.13100734
235	0xbd9810bc	-0.07425067
236	0xbe774083	-0.24145703
237	0x3e503390	0.2033217
238	0xbe305aee	-0.17222187
239	0xbe4cbd8a	-0.19994178
240	0xbdece086	-0.11566262
241	0xbdd03373	-0.10166063
242	0xbdfef165	-0.12448386
243	0xbe9dfc18	-0.30856395
244	0xbe3aff2f	-0.18261407
245	0xbd917b05	-0.07103542
246	0xbe4e113b	-0.2012376
247	0x3de42110	0.11139119
248	0xb950f959	-0.00019929315
249	0x3d70bcdc	0.05877386
250	0xbdbaba8c	-0.09117612
251	0xbdda358d	-0.10654745
252	0x3e17a049	0.14807238
253	0x3eb3ec16	0.35141057
254	0x3e5733c2	0.21015838
255	0xbe219d60	-0.1578269

gnn.conv_params.1.bias f4 [32]
0	0xbd86f232	-0.06589164
1	0x3d07f724	0.033194676
2	0xbc8fc84b	-0.017551562
3	0x3d0ec141	0.03485227
4	0x3cff98d7	0.03120081
5	0xbd0cc07d	-0.03436326
6	0xbce4ae43	-0.027915126
7	0x3ce27b38	0.027646646
8	0xbc9334e1	-0.01796955
9	0x3b8741ef	0.004127733
10	0x3b97d751	0.004633822
11	0xbd1e8ec2	-0.038710363
12	0xbb7befe6	-0.003844255
13	0xbc498248	-0.012299128
14	0x3ce14404	0.027498253
15	0x3cfa342f	0.030542461
16	0xbbca3060	-0.0061703175
17	0x3c495159	0.012287461
18	0x3d24849a	0.04016552
19	0x3cbcc2d8	0.023042127
20	0xbd1fd617	-0.03902253
21	0x3b8f624d	0.004375732
22	0xbdc2af94	-0.09506145
23	0x3ca9da4b	0.020733973
24	0xbd53fe79	-0.051756356
25	0xbd144b94	-0.03620489
26	0x3c1b5f49	0.009483167
27	0x3cf84446	0.030305993
28	0xbc35eae5	-0.0111033665
29	0xbc333cec	-0.010939818
30	0x3c883763	0.016627973
31	0xbcc48969	-0.023991304

gnn.conv_params.2.weight f4 [32, 32]
0	0xbd24fd1a	-0.04028044
1	0xbdd56345	-0.10419325
2	0x3e640075	0.222658
3	0x3e629fad	0.22131224
4	0x3d997af7	0.07494157
5	0xbd1f5f27	-0.038909104
6	0x3e9250e5	0.28577343
7	0xbe8c6406	-0.27420062
8	0x3e6646ff	0.2248802
9	0x3dfe31ab	0.12411817
10	0x3e865b48	0.26241517
11	0x3e6038ef	0.21896718
12	0xbb4a7d40	-0.0030897409
13	0x3e244066	0.16040191
14	0x3e2ae080	0.16687202
15	0xbe8dec1e	-0.27719206
16	0x3e6fb38d	0.23408337
17	0xbd36ffaa	-0.044677414
18	0x3df6d74d	0.12052784
19	0xbe39936f	-0.18122648
20	0x3e6f9edc	0.23400444
21	0x3dc367d1	0.09541286
22	0xbe668aca	-0.22513881
23	0x3e265275	0.16242392
24	0x3de2bbee	0.11071001
25	0x3dea5240	0.11441469
26	0xbcff366c	-0.03115388
27	0x3d2f30d7	0.042771187
28	0xbe4b2be5	-0.19840963
29	0x3e35dfb7	0.17761122
30	0x3e83ca22	0.25740153
31	0x3d6c171c	0.057639226
32	0xbe774933	-0.24149017
33	0xbdb32598	-0.08747405
34	0xbdbccefc	-0.09219167
35	0x3e506fd6	0.20355162
36	0xbe0b05a4	-0.1357637
37	0xbe84486c	-0.25836504
38	0xbea74d38	-0.326761
39	0xbe49610a	-0.19665924
40	0x3e02e9ba	0.12784472
41	0x3dc95e2c	0.09832415
42	0xbe8f8db8	-0.2803781
43	0x3eb92ab1	0.36165383
44	0xbdca7849	-0.09886224
45	0xbe5b52c0	-0.21418285
46	0x3d9a44b6	0.07532637
47	0x3e0c4bdf	0.13700818
48	0x3e33441f	0.17506455
49	0xbddb386c	-0.10704121
50	0x3eb641ea	0.35597163
51	0x3e896bd3	0.26840076
52	0x3eafc0dc	0.34326828
53	0x3d3f2ab0	0.04667157
54	0xbd35384e	-0.04424315
55	0xbe9b00d3	-0.30274066
56	0x3ea94bcc	0.3306564
57	0xbd957e91	-0.07299531
58	0x3c2d0208	0.010559566
59	0xbdc05591	-0.093913205
60	0xbe817eea	-0.2529214
61	0xbdcc3633	-0.09971275
62	0xbdaf9cc5	-0.08574823
63	0xbecf6abc	-0.4051112
64	0xbe1b18b4	-0.15146142
65	0x3e52be70	0.20580459
66	0x3da37181	0.079806335
67	0xbe299f58	-0.16564691
68	0xbce0d4c2	-0.0274452
69	0xbe50161f	-0.20320939
70	0x3d40edf0	0.047101915
71	0xbc620711	-0.01379563
72	0x3dc0fa9d	0.09422801
73	0x3db2c3ab	0.08728727
74	0x3dfd9778	0.12382406
75	0x3e54e34e	0.20789835
76	0x3d8cbec5	0.06872324
77	0xbe82d210	-0.2555089
78	0x3e7ad2cf	0.2449448
79	0xbe9064bc	-0.28201854
80	0x3e2ba08b	0.16760461
81	0xbc33b24b	-0.010967801
82	0x3e235d9c	0.15953678
83	0xbdb20f38	-0.08694309
84	0xbd82d6aa	-0.063886
85	0xbce5afd4	-0.028037943
86	0x3e963350	0.29336023
87	0xbe567aae	-0.20945236
88	0x3e373c4b	0.17894094
89	0xbe8c3ddd	-0.27390948
90	0x3e0bf08f	0.13665985
91	0xbe9bfcc3	-0.3046628
92	0xbe1a867d	-0.15090366
93	0x3e272571	0.16322877
94	0x3e5d7898	0.21628034
95	0xbd990ee1	-0.07473541
96	0xbe3322bc	-0.17493719
97	0xbe6c23c0	-0.23060513
98	0x3da7e5b1	0.08198107
99	0x3e30dad5	0.17270978
100	0x3ddc1bcb	0.107474886
101	0xbeaf651c	-0.34256828
102	0xbe7eb8a1	-0.24875118
103	0x3e146a59	0.14493693
104	0x3e673af8	0.22581089
105	0x3e4654e5	0.19368322
106	0xbd300931	-0.042977516
107	0xbc9ba39b	-0.018998912
108	0xbe08ea9d	-0.13370748
109	0xbdffdfa2	-0.124938264
110	0xbd8d879f	-0.06910633
111	0x3df58b1d	0.119894244
112	0x3c2c844f	0.010529592
113	0x3d94192d	0.072313644
114	0xbce4ce67	-0.027930452
115	0x3e2705b1	0.16310765
116	0xbd99cc9d	-0.0750973
117	0x3d62b2e7	0.055346396
118	0xbcc9f800	-0.024654388
119	0xbe7568cc	-0.23965758
120	0x3d3790ab	0.0448157
121	0x3db24fca	0.08706625
122	0x3d9b145c	0.075722426
123	0x3c6f475f	0.014604419
124	0xbe2f219c	-0.17102665
125	0xbe4a8855	-0.19778569
126	0x3dc8dff4	0.09808341
127	0xbc8465aa	-0.016161758
128	0xbe13fbab	-0.14451472
129	0x3eca454a	0.39505988
130	0x3dc7b9e1	0.097522505
131	0x3e7a9254	0.24469882
132	0xbe760702	-0.24026111
133	0xbd937f3c	-0.072020024
134	0xbef1ad50	-0.4720254
135	0xbe10d05b	-0.14141981
136	0x3c814b8f	0.0157831
137	0x3e0d6191	0.1380675
138	0x3e316cb2	0.1732662
139	0x3e4f970a	0.2027246
140	0xbe9cb790	-0.30608797
141	0xbd97745b	-0.0739524
142	0x3a5b1897	0.0008357851
143	0x3d0b883c	0.03406547
144	0x3d5ef13f	0.05442929
145	0xbdfa61df	-0.12225699
146	0x3e99dd46	0.3005163
147	0xbe6abc8a	-0.22923484
148	0x3e28b732	0.16476133
149	0xbe426d8f	-0.18987106
150	0xbeb02310	-0.3440175
151	0xbdc74400	-0.09729767
152	0x3e9becba	0.30454046
153	0xbd625547	-0.055257108
154	0x3d8be86f	0.068314426
155	0x3e3e2e25	0.1857229
156	0x3dc6be23	0.097042345
157	0x3eb4f1c8	0.35340714
158	0x3e4a4873	0.197542
159	0xbe580564	-0.21095806
160	0x3d987ba2	0.07445456
161	0xbe380ada	-0.1797289
162	0x3e863015	0.2620856
163	0x3d692286	0.05691769
164	0x3eaee298	0.34157252
165	0xbe20f916	-0.15720019
166	0x3dd92339	0.10602421
167	0x3c4971e4	0.01229522
168	0x3e92ea30	0.28694296
169	0x3e2dd3a1	0.16975261
170	0xbe6b7ce3	-0.22996859
171	0xbde7200c	-0.11285409
172	0xbdc5d33b	-0.0965943
173	0xbe6d18dd	-0.23154016
174	0x3d3bddfa	0.04586599
175	0xbd69eb74	-0.05710931
176	0x3dbfc2fc	0.09363362
177	0x3ea0a6b6	0.3137719
178	0xbe5ec0e1	-0.21753265
179	0xbe86d09c	-0.2633103
180	0x3de77196	0.11300962
181	0xbe81116d	-0.25208607
182	0xbe9f9560	-0.31168652
183	0xbe1cfc75	-0.1533068
184	0x3cd10444	0.02551473
185	0xbea2be8c	-0.31786
186	0xbd098308	-0.033572227
187	0x3eaca8c3	0.33722505
188	0x3d012d4a	0.03153733
189	0x3e8f3788	0.27972054
190	0x3e5a9a2f	0.21347879
191	0xbebce92c	-0.36896646
192	0x3e001c51	0.12510802
193	0x3e340c32	0.17582777
194	0x3d7f31f8	0.062303513
195	0xbe69806d	-0.22802897
196	0x3ea0ead6	0.31429166
197	0xbe5ad50b	-0.21370332
198	0x3e6f3c99	0.2336296
199	0xbe7b8f88	-0.24566472
200	0x3cd191ba	0.025582183
201	0x3e73db6d	0.23814173
202	0xbd9d6120	-0.07684541
203	0xbe656a9a	-0.22403947
204	0xbe086545	-0.13319881
205	0x3e7076f6	0.2348288
206	0xbce93ed4	-0.028472342
207	0x3e640911	0.22269084
208	0x3d8c0565	0.068369664
209	0x3e8154bc	0.2525996
210	0xbd904d59	-0.07046003
211	0x3e806db9	0.25083712
212	0xbc94d7e0	-0.018169343
213	0x3e380056	0.17968878
214	0x3bdfd1be	0.006830423
215	0x3e950d78	0.29111838
216	0x3e8684c6	0.26273173
217	0xbe92426f	-0.2856631
218	0x3dd8027b	0.10547348
219	0x3d859f77	0.06524556
220	0xbc66fceb	-0.014098386
221	0x3e243c0c	0.16038531
222	0x3e56e4a0	0.20985651
223	0xbe335952	-0.17514542
224	0x3e9d5819	0.30731276
225	0x3e191b26	0.14951763
226	0x3df94341	0.12171031
227	0xbe29931d	-0.16560026
228	0x3e966a56	0.29378003
229	0x3e87b2ba	0.26503545
230	0x3d5a25ab	0.05325858
231	0xbe4f14ad	-0.20222731
232	0xbd5cd9b2	-0.053918548
233	0x3e548a47	0.20755874
234	0xbe585a1a	-0.21128121
235	0x3daa1fd7	0.08306854
236	0xbdf6f7a4	-0.120589525
237	0xbd7b441b	-0.061344247
238	0x3da2acfa	0.07943149
239	0x3e240ca7	0.16020451
240	0xbe3639d4	-0.17795497
241	0xbe60cb77	-0.21952616
242	0xbca7c4af	-0.020479528
243	0xbb72e566	-0.0037063002
244	0xbe86c3b3	-0.26321182
245	0xbe079f1f	-0.13244294
246	0xbe822d04	-0.2542497
247	0x3d219c19	0.039455507
248	0x3e366678	0.17812526
249	0xbd6d6553	-0.05795796
250	0x3bc32cb1	0.0059562554
251	0x3dbef066	0.09323196
252	0xbdd62241	-0.10455752
253	0x3e6c418e	0.23071882
254	0x3d4d63c8	0.050143987
255	0x3e2bf4fc	0.16792673

gnn.conv_params.2.bias f4 [32]
0	0xbc864ca4	-0.016393967
1	0xbac1dfd3	-0.0014791436
2	0xbd1251b4	-0.03572245
3	0x3cb0fd17	0.021605058
4	0xbcb401bb	-0.021973481
5	0xbce0f9d7	-0.027462883
6	0xbcec0da2	-0.028815094
7	0x3af6772f	0.001880383
8	0x3cd0b1cc	0.025475405
9	0xbb99c83d	-0.0046930597
10	0xbc73d5cb	-0.014882515
11	0x3cbde79b	0.023181727
12	0x3d3e0045	0.046386976
13	0x3d05a5ad	0.032628704
14	0x3c91116d	0.017708505
15	0x3c3a85fb	0.0113844825
16	0xbc8b2fe9	-0.016990619
17	0x3d5f63ff	0.054538723
18	0x3d34c67e	0.04413461
19	0xbbff398d	-0.007788843
20	0x3c38bec0	0.011275947
21	0x3d4508cb	0.04810409
22	0xbcbc15af	-0.022959558
23	0xbc6f7ce0	-0.014617175
24	0x3d3dd306	0.046343826
25	0xbd179594	-0.037007883
26	0x3d1074a1	0.035267476
27	0x3c381ff6	0.011238089
28	0x3c4abe91	0.012374536
29	0x3cf85a5a	0.03031652
30	0x3b00cb6a	0.0019652494
31	0xbca52361	-0.020158472

gnn.conv_params.3.weight f4 [1, 32]
0	0xbeba42eb	-0.3637918
1	0x3d861ce8	0.06548482
2	0xbd95ac0a	-0.073082045
3	0x3c9cdf5a	0.019149471
4	0xbe2b70c1	-0.16742231
5	0xbeac23ce	-0.33621067
6	0x3e6bf24c	0.23041648
7	0x3d373b79	0.044734452
8	0xbd51ca43	-0.051218282
9	0x3ea8f6bd	0.33000746
10	0x3d8a8ee1	0.06765533
11	0x3e23f6e6	0.16012153
12	0x3ee6a8f0	0.45050764
13	0x3e2b124e	0.16706201
14	0x3d134e81	0.03596354
15	0x3e43b3f6	0.19111618
16	0x3db35509	0.087564535
17	0x3dc7a13c	0.0974755
18	0xbeb7879a	-0.35845643
19	0x3e4b0d6c	0.19829339
20	0xbe7f22af	-0.24915574
21	0x3e29cdfb	0.16582482
22	0xbd9b9187	-0.075961165
23	0x3e570098	0.2099632
24	0x3de1888e	0.11012374
25	0xbe3e5764	-0.18588024
26	0x3e9c1cab	0.30490622
27	0xbeaaf607	-0.3339083
28	0xbec037c1	-0.37542537
29	0x3dddb36e	0.10825239
30	0x3ea7b66c	0.32756364
31	0x3ca353e0	0.019937456

gnn.conv1d_params1.weight f4 [16, 1, 97]
0	0x3c80c68d	0.015719676
1	0xbda2d0ec	-0.07950005
2	0xbdb56ad7	-0.08858269
3	0x3d8649c6	0.0655704
4	0x3d39052f	0.04517096
5	0x3cbbfa21	0.02294642
6	0x3d63abba	0.055583693
7	0xbd6b8abd	-0.057505358
8	0x3d78633f	0.060641523
9	0xbe0ce76b	-0.13760154
10	0xbe171681	-0.14754678
11	0x3e033f2a	0.12817064
12	0x3e039279	0.12848844
13	0xbddc5f6b	-0.10760387
14	0xbdffb78d	-0.124861814
15	0xbd39b20f	-0.045335826
16	0xbc54905b	-0.01297387
17	0xbac59626	-0.0015074655
18	0xbdae6000	-0.08514404
19	0xbcd04415	-0.025423089
20	0xbd09ee04	-0.033674255
21	0xbbcf94fc	-0.006334899
22	0x3e1b0226	0.15137538
23	0x3e0928fc	0.1339454
24	0xbd4462da	-0.047945835
25	0xbb9e8ddd	-0.0048386888
26	0xbd300c0b	-0.042980235
27	0x3c615f71	0.013755665
28	0xbc832a27	-0.01601131
29	0x3e4686d7	0.19387375
30	0xbc7b3a81	-0.015333773
31	0x3ccb74c1	0.024835946
32	0x3d3eb416	0.046558462
33	0xbdb8f258	-0.090305984
34	0x3cb9ee97	0.022696776
35	0x3d310b20	0.0432235
36	0xbdbc2268	-0.0918625
37	0x3e05d594	0.13069755
38	0x3e3b7622	0.18306783
39	0x3da01a77	0.07817548
40	0xbd0962e5	-0.03354158
41	0x3d6a18bc	0.057152495
42	0xbcd1b817	-0.025600476
43	0xbd912d14	-0.07088676
44	0x3d9079f5	0.070545115
45	0xbd8531d9	-0.06503648
46	0xbd8a22ca	-0.06744917
47	0xbdf2fd6a	-0.11864741
48	0xbd1d4030	-0.038391292
49	0xbb28967c	-0.0025724461
50	0xbdbee36e	-0.093207225
51	0xbb470dce	-0.0030373218
52	0xbe0019cc	-0.1250984
53	0x3c22fb54	0.009947617
54	0xbd8f9921	-0.07011629
55	0x3d6ae57d	0.057347763
56	0x3da5e7a5	0.08100823
57	0xbd6e3b39	-0.058161948
58	0xbe26bdcc	-0.1628334
59	0xbce1f6f1	-0.027583571
60	0xbd0e0df7	-0.034681287
61	0xbe11b966	-0.1423088
62	0x3ddb5151	0.10708869
63	0x3cf7f8d8	0.030270025
64	0x3d45347e	0.048145764
65	0xbe30bb4b	-0.17258947
66	0xbd912045	-0.07086233
67	0xbe2ff057	-0.17181526
68	0xbe43bbc1	-0.19114591
69	0xbdbef49d	-0.09324
70	0xbcc51d01	-0.024061682
71	0x3b0b51e4	0.0021258527
72	0x3d92dde2	0.07171227
73	0x3cba69b3	0.02275548
74	0xbcb7cc2e	-0.022436228
75	0x3c8915e6	0.016734075
76	0xbd54368b	-0.05180983
77	0xbd70cd56	-0.058789574
78	0x3c4e04db	0.0125744
79	0xbd653995	-0.055963118
80	0x3c34a450	0.011025503
81	0xbd84bde7	-0.064815335
82	0xbda570fd	-0.080781914
83	0x3dadc8bf	0.08485555
84	0xbcd4a2ee	-0.025956597
85	0x3c1a7e34	0.009429503
86	0xbdd2e192	-0.102969304
87	0xbd00bbfa	-0.03142927
88	0xbd541e43	-0.051786672
89	0xbd3acccc	-0.045605466
90	0x3d5e422a	0.054262318
91	0x3e0851c4	0.13312441
92	0xbc44245f	-0.011971562
93	0x3cda8ece	0.026679423
94	0x3d806cd8	0.0627076
95	0xbd2a5861	-0.04158819
96	0xbdfed1f3	-0.124423884
97	0xbc0f07a9	-0.008729854
98	0xbd292fe9	-0.041305456
99	0x3e0139f9	0.12619771
100	0x3dc57df6	0.09643166
101	0xbd89f54c	-0.0673624
102	0xbb8c5efe	-0.004283785
103	0x3e16d267	0.147287
104	0xbd2b9892	-0.04189355
105	0xbd86ff38	-0.06591648
106	0xbd704cd6	-0.058667026
107	0x3cae9d25	0.021315167
108	0x3db4cf4d	0.08828602
109	0x3e1ed0c7	0.1550933
110	0xbc93b54f	-0.01803079
111	0x3c0f8b4d	0.008761239
112	0xbca45ec5	-0.02006472
113	0x3db81e86	0.08990197
114	0x3d5ada28	0.053430706
115	0x3dd7f68b	0.10545071
116	0xbda9dd7f	-0.082942
117	0xbcb645e7	-0.022250129
118	0x3d9bd2bf	0.07608556
119	0xbd376cc7	-0.044781473
120	0xbced5352	-0.028970394
121	0xbce9b4b1	-0.028528543
122	0xbc8d8d9b	-0.017279437
123	0x3db39610	0.087688565
124	0xbe04b151	-0.12958266
125	0x3ca2b5e7	0.019862128
126	0x3c31dc14	0.010855693
127	0x3d341952	0.04396946
128	0xbd96f386	-0.07370667
129	0x3bb40ca7	0.0054946723
130	0xbdafd73d	-0.08585975
131	0xbbf746fc	-0.007546304
132	0xbd747a8c	-0.059687182
133	0x3e898e32	0.268663
134	0x3dc5b043	0.0965276
135	0x3d7c141e	0.061542623
136	0xbac3802c	-0.0014915518
137	0x3dfe60ee	0.124208316
138	0xbe7844ea	-0.24245039
139	0xbd096048	-0.033539087
140	0x3e321305	0.17390068
141	0x3d19026c	0.037355825
142	0xbd4c7338	-0.04991457
143	0x3e0ce97e	0.13760945
144	0x3d407473	0.046986055
145	0x3d38a70d	0.045081187
146	0x3e0869fd	0.13321681
147	0xbdce890b	-0.100847326
148	0xbdc10bf9	-0.09426112
149	0x3d29e237	0.0414755
150	0x3d5459fb	0.051843625
151	0xbdd94d09	-0.106103964
152	0x3e407c77	0.1879748
153	0xbc9bd977	-0.019024594
154	0xbd8aa45b	-0.067696296
155	0xbe35f7d5	-0.17770322
156	0x3df8720e	0.12131129
157	0x3b82c322	0.003990547
158	0x3dae1e3e	0.08501862
159	0xbde03171	-0.1094693
160	0xbdbf5f5a	-0.09344359
161	0xbdd8e63f	-0.10590791
162	0xbc91c9ff	-0.017796515
163	0x3c5c4010	0.013443008
164	0x3bd7e6be	0.006588786
165	0xbad5d819	-0.0016315012
166	0xbde0ae97	-0.109708
167	0x3d89fe46	0.06737952
168	0xbb15990f	-0.0022826826
169	0xbdf7f61d	-0.12107489
170	0xbde8c384	-0.11365417
171	0xbd9cdb8b	-0.07659062
172	0xbd0e721a	-0.034776784
173	0x3cde9404	0.027170189
174	0x3cdded91	0.02709082
175	0x3d5e8cf8	0.054333657
176	0xbd27403c	-0.040832743
177	0xbdc1d743	-0.09464886
178	0xbd44a061	-0.04800451
179	0x3de24164	0.110476285
180	0x3b7ce841	0.0038590583
181	0xbe1355db	-0.1438822
182	0xbd723027	-0.059127953
183	0xbd9a765d	-0.07542107
184	0x3d9bf3a8	0.07614833
185	0x3c8c32f9	0.01711415
186	0xbc8f58f5	-0.017498473
187	0x3df93678	0.12168592
188	0xbd1a3d36	-0.03765603
189	0xbbfe2032	-0.007755303
190	0xbc008f14	-0.0078466125
191	0x3b9cf2de	0.004789694
192	0xbde9b73b	-0.114119016
193	0xbd2fd4cd	-0.042927552
194	0x3db03bfb	0.0860519
195	0xbdff8a2d	-0.12477527
196	0x3d972c93	0.07381549
197	0x3da214e4	0.07914141
198	0xbdba51d8	-0.09097642
199	0x3de33345	0.11093763
200	0xbbfba828	-0.007679958
201	0xbe1a4a13	-0.1506732
202	0xbbf121e4	-0.0073587764
203	0xbb5afe7e	-0.003341585
204	0xbdde6bb4	-0.108603865
205	0xbbcf80fa	-0.006332514
206	0x3d8d1932	0.06889571
207	0x3e4952c2	0.19660476
208	0x3e823b79	0.25436
209	0xbd925cd4	-0.07146612
210	0xbd4f51e1	-0.050615195
211	0x3ea8de86	0.32982272
212	0x3e07de6c	0.13268441
213	0x3dc477d3	0.09593167
214	0xbd56f7f9	-0.05248258
215	0x3d7ab11b	0.061204057
216	0xbdf30b91	-0.118674405
217	0x3d1f6c31	0.03892154
218	0x3c919e49	0.017775672
219	0xbd104b0a	-0.035227813
220	0xbc5fd9c1	-0.013662756
221	0xbe7f86f3	-0.24953823
222	0xbd8b1299	-0.067906566
223	0x3cc9eaa1	0.024648013
224	0x3d9d3539	0.07676167
225	0xbda9b3bf	-0.08286237
226	0xbe0069dc	-0.12540382
227	0xbdbeabf1	-0.09310139
228	0xbd6350da	-0.055497028
229	0x3cf9f6b0	0.030513138
230	0x3ded130a	0.11575897
231	0x3d3b0652	0.045660324
232	0xbcb5a336	-0.022172552
233	0xbdd0fa4d	-0.10203991
234	0xbd502a29	-0.050821457
235	0xbda38437	-0.07984202
236	0xbced17c9	-0.028942006
237	0x3da7c7eb	0.08192428
238	0x3d29a69d	0.04141866
239	0x3d03cc1b	0.032177072
240	0x3c139e50	0.009009913
241	0xbd526f7f	-0.051375862
242	0xbb21d9e3	-0.002469652
243	0x3ce9ac9c	0.02852469
244	0xbc7ba911	-0.015360133
245	0xbd997f42	-0.074949756
246	0x3d643a53	0.055719685
247	0x3daec2c9	0.08533246
248	0xbd968bc2	-0.073508754
249	0x3d42d02b	0.047561806
250	0xbd7ac33b	-0.061221343
251	0xbd6b5afa	-0.05745981
252	0xbde078d8	-0.10960549
253	0x3ba365c0	0.004986495
254	0xbd49e88d	-0.049294043
255	0xbdc92af8	-0.09822649

gnn.conv1d_params1.bias f4 [16]
0	0xbd4086da	-0.047003604
1	0xbd9b5c5b	-0.07585975
2	0xbdb12097	-0.08648794
3	0x3dd7215c	0.1050441
4	0xbd900759	-0.070326515
5	0xbc9e8cba	-0.019354213
6	0x3e1b1988	0.15146458
7	0xbc092883	-0.008371475
8	0xbd9a2c3f	-0.075279705
9	0xbdae0b20	-0.08498216
10	0x3e447f25	0.19189127
11	0xbd9fba9a	-0.07799263
12	0x3d1f4628	0.038885266
13	0xbd845284	-0.06461051
14	0xbd86512a	-0.065584496
15	0x3e5d4a70	0.21610427

gnn.conv1d_params2.weight f4 [32, 16, 5]
0	0x3e453e6f	0.19262098
1	0x3ccaac4c	0.02474036
2	0x3d384e6a	0.044996656
3	0xbdd93458	-0.10605687
4	0x3cb7189c	0.022350602
5	0x3e21899c	0.1577515
6	0x3e40708b	0.18792932
7	0x3db45b29	0.0880645
8	0xbd61e570	-0.05515045
9	0xbd435930	-0.047692478
10	0xbdd2aee7	-0.10287266
11	0xb9abd4c4	-0.00032774184
12	0x3e4c09a7	0.19925557
13	0xbd045e05	-0.032316227
14	0xbd9d06aa	-0.07667287
15	0x3d54dade	0.05196654
16	0xbda5a8c7	-0.08088832
17	0xbbade2e8	-0.0053065903
18	0xbe05c5f2	-0.13063791
19	0x3d5f735b	0.05455337
20	0x3e472670	0.19448256
21	0x3df94a32	0.12172355
22	0x3e24eb30	0.16105342
23	0x3deb811c	0.11499235
24	0x3e36358c	0.17793864
25	0xbdc40a7b	-0.095723115
26	0xbdae9a03	-0.08525469
27	0xbc420e1d	-0.011844185
28	0xbdd8172b	-0.10551294
29	0x3c009f67	0.0078505045
30	0xbdb1b7e9	-0.08677656
31	0x3d4a651a	0.049412824
32	0x3d24edf4	0.040265992
33	0x3aaa3ec9	0.0012988682
34	0x3e3cd559	0.1844076
35	0xbd8b4d3c	-0.06801841
36	0xbd5eac40	-0.05436349
37	0x3d640ef2	0.055678315
38	0xbe19fa9c	-0.15037006
39	0xbd07bb4d	-0.03313761
40	0x3c0a6424	0.008446727
41	0x3b218cd0	0.0024650581
42	0xbb1f248d	-0.002428326
43	0x3c0797f8	0.008275978
44	0x3e220e0d	0.15825672
45	0x3cac7633	0.021052456
46	0xbbab92b0	-0.0052359924
47	0xbc521278	-0.012821786
48	0xbe11f7c8	-0.14254677
49	0x3da1ea2b	0.07905992
50	0x3d9a04b1	0.07520426
51	0x3d8b811f	0.06811737
52	0xbd5cc06a	-0.053894438
53	0xbe380e2f	-0.1797416
54	0x3e42557b	0.1897792
55	0x3d017a1a	0.031610586
56	0xbd051270	-0.032488286
57	0xbd93f627	-0.07224684
58	0xbdc8a6d9	-0.09797449
59	0x3da13b47	0.078726344
60	0xbd4980f1	-0.049195234
61	0xbdbfdcc1	-0.09368277
62	0x3caeab9a	0.02132206
63	0xbde97683	-0.113995574
64	0xbddb8f8f	-0.10720741
65	0xbc193acc	-0.009352397
66	0xbdcd7949	-0.10032899
67	0xbb9177c5	-0.0044393265
68	0xbdc538b3	-0.09629955
69	0xbd223dab	-0.039609592
70	0xbda87a8b	-0.08226498
71	0x3d62af96	0.055343233
72	0x3c5e5289	0.013569483
73	0xbd966819	-0.07344074
74	0x3c20e180	0.009819388
75	0x3d43dcf4	0.04781814
76	0x3dd1abea	0.10237868
77	0x3df15b89	0.11785037
78	0xbd8f1c30	-0.06987798
79	0x3d9a02ef	0.07520091
80	0xbe597bdf	-0.2123866
81	0xbe997c83	-0.29977807
82	0xbeac63c1	-0.33669856
83	0xbedbd792	-0.42937905
84	0xbe9ef117	-0.31043312
85	0x3d3fa155	0.046784718
86	0x3d818336	0.063238546
87	0xbd435d54	-0.047696427
88	0x3be8b83d	0.007102041
89	0xbe26fcfd	-0.16307445
90	0x3d936592	0.071971074
91	0xbcda88fd	-0.02667665
92	0x3dbe57d6	0.09294097
93	0x3d89a218	0.0672037
94	0xbc7d60a6	-0.015464937
95	0xbd46e905	-0.04856207
96	0x3d5a4eba	0.053297736
97	0x3d8bcd1c	0.06826231
98	0xbd2a04aa	-0.041508354
99	0x3daaed82	0.08346082
100	0x3d9d93e8	0.076942265
101	0x3d9018b7	0.07035964
102	0x3ddb6123	0.10711887
103	0xbd482a82	-0.048868664
104	0xbdca16ff	-0.098676674
105	0xbd737867	-0.059440996
106	0xbd63307e	-0.055466168
107	0x3d883975	0.06651584
108	0x3d9160fc	0.070985764
109	0xbdd396be	-0.10331486
110	0xbc60a444	-0.013711039
111	0xbd1bdb7a	-0.038051106
112	0x3db3b5f6	0.08774941
113	0x3d239366	0.039935492
114	0x3e03c68a	0.12868705
115	0xbd96da65	-0.07365874
116	0x3de3e3c0	0.11127424
117	0x3da7dbc7	0.08196216
118	0xbdbc0b09	-0.09181792
119	0xbdb4e50f	-0.08832752
120	0xbdbfd14c	-0.09366092
121	0xbd73b8db	-0.059502464
122	0xbc98fdca	-0.018675704
123	0x3ca499b8	0.02009283
124	0xbd86cf4c	-0.065825075
125	0x3de705fa	0.11280437
126	0xbc85fbfc	-0.016355507
127	0xbd2de114	-0.04245098
128	0xbc8fabc2	-0.017537955
129	0xbbba6ed0	-0.0056894794
130	0xbc96cec4	-0.01840914
131	0xbddce7e5	-0.10786418
132	0x3ca40029	0.020019608
133	0xbe024ef0	-0.12725425
134	0x3e09b1f2	0.13446787
135	0x3ced0adc	0.028935842
136	0x3d0a5cf7	0.033780064
137	0x3d63d771	0.055625383
138	0xbcf84f55	-0.030311266
139	0x3ca88200	0.020569801
140	0xbdf9a1a0	-0.12189031
141	0xbcca3865	-0.024685094
142	0x3c13e50a	0.009026775
143	0xbda3a877	-0.079911165
144	0xbd821e69	-0.063534565
145	0x3d45c2e6	0.048281573
146	0xbdbe2fa0	-0.092864275
147	0x3d8a3013	0.06747451
148	0xbd1bdca6	-0.038052224
149	0xbdee600f	-0.116394155
150	0x3e120bc3	0.14262299
151	0x3d3421cc	0.043977544
152	0x3d754043	0.059875738
153	0x3dad7b39	0.084707685
154	0x3dd94e9e	0.10610698
155	0x3db57802	0.0886078
156	0xbdcbd981	-0.09953595
157	0x3e2732e6	0.1632801
158	0xbbcc5bcb	-0.0062365285
159	0x3e03ad4d	0.12859078
160	0x3da04b27	0.07826834
161	0xbce3dc76	-0.027815085
162	0xbd9b09ca	-0.075702265
163	0x3c6232ca	0.013806054
164	0xbbaa151b	-0.0051905042
165	0xbd87057a	-0.065928414
166	0x3d6b2c9a	0.057415582
167	0xbd316965	-0.043313403
168	0xbc32bd0c	-0.01090933
169	0xbceffa53	-0.029294169
170	0x3dc2e272	0.09515847
171	0x3b9ba6e1	0.004750118
172	0x3d500161	0.050782565
173	0xbccc062d	-0.024905289
174	0x3c9d716a	0.01921912
175	0x3da960e7	0.08270436
176	0x3de29cd2	0.11065067
177	0x3d80f07f	0.06295871
178	0x3c7bf93f	0.015379249
179	0xbd7593d8	-0.059955448
180	0xbdb126f7	-0.0865001
181	0xbcb98fd9	-0.0226516
182	0x3d0e001e	0.03466808
183	0xbdb11a50	-0.08647597
184	0x3dd9d805	0.106369056
185	0xbccd10d6	-0.025032442
186	0xbd83e3da	-0.064399436
187	0x3dc45b9e	0.09587787
188	0x3e083e52	0.13305023
189	0x3e19437d	0.14967151
190	0xbe05941c	-0.1304478
191	0xbd991827	-0.0747531
192	0x3d5bdfe3	0.053680312
193	0xbe06a387	-0.13148318
194	0xbd6d1561	-0.057881717
195	0x3e2be123	0.16785102
196	0x3cc930d6	0.02455942
197	0x3e0d5069	0.13800205
198	0xbd646cfd	-0.055768
199	0x3dbfd910	0.09367573
200	0x3d55ae7a	0.052168347
201	0x3d442bb2	0.047893234
202	0xbd966d20	-0.07345033
203	0x3b661061	0.0035104977
204	0xbc897fde	-0.016784605
205	0xbd5f3306	-0.05449202
206	0x3d9cd41c	0.07657644
207	0xbc475971	-0.012167321
208	0x3c6017f8	0.01367759
209	0x3cf32aa4	0.029683419
210	0x3e2dba33	0.1696556
211	0xbda3865e	-0.07984613
212	0x3c557e2c	0.01303057
213	0xbe0bd051	-0.13653685
214	0xbe55dbb2	-0.20884588
215	0x3d957cb1	0.072991736
216	0xbd8e11f2	-0.069370165
217	0xbd41747a	-0.04723022
218	0xbd99b1d5	-0.07504622
219	0x3dc59592	0.09647669
220	0x3d204912	0.039132185
221	0xbcc16575	-0.023607949
222	0x3d0d7aef	0.034541067
223	0x3d25693d	0.040383566
224	0xbd3b3d43	-0.04571272
225	0xbd07e213	-0.033174586
226	0xbd866b45	-0.06563429
227	0x3e260b4e	0.1621525
228	0x3e2468bf	0.16055582
229	0x3de99fec	0.11407456
230	0xbdc85771	-0.09782303
231	0xbd00cd4f	-0.031445798
232	0x3dd8b585	0.10581497
233	0xbd97baae	-0.07408653
234	0xbdafa950	-0.08577216
235	0x3db4fc05	0.088371314
236	0x3dd3904d	0.103302576
237	0x3dd9a915	0.10627953
238	0x3d9bec59	0.07613439
239	0xbe6b3b92	-0.22971943
240	0x3d507953	0.050896954
241	0x3d5e8d5f	0.05433404
242	0x3db9206f	0.09039389
243	0xbd056568	-0.03256741
244	0x3d7b6d52	0.061383553
245	0x3e203e6e	0.15648815
246	0x3cedff24	0.029052325
247	0x3d3ff787	0.04686692
248	0x3cd41e46	0.025893342
249	0x3debcc34	0.11513558
250	0x3db7a51d	0.0896704
251	0x3e137caa	0.14403024
252	0x3dbb1c7b	0.091362916
253	0x3d2a603d	0.041595686
254	0x3e19c5e4	0.15016896
255	0x3db4ad96	0.088221714

gnn.conv1d_params2.bias f4 [32]
0	0xbdce618c	-0.10077199
1	0x3daeaea3	0.08529403
2	0x3d808e69	0.062771626
3	0xbd7fdffc	-0.062469468
4	0xbd54c1f4	-0.05194278
5	0x3ce6086f	0.028080193
6	0xbcdbd17b	-0.026833287
7	0x3c4740af	0.012161418
8	0xbd2de0e2	-0.042450793
9	0xbd67945e	-0.05653798
10	0x3d569ed2	0.052397557
11	0x3d358ce6	0.044323824
12	0x3d9e736d	0.077368595
13	0xbc80b812	-0.015712772
14	0x3dd1eb38	0.102499425
15	0xbd9b6941	-0.07588435
16	0x3d3d6fe6	0.046249293
17	0x3dcbd2b9	0.099523015
18	0x3cdc2b01	0.026875975
19	0x3d100659	0.035162304
20	0xbc56bb73	-0.013106215
21	0xbc80c9be	-0.015721198
22	0x3de77d29	0.11303169
23	0x3cc8f616	0.024531405
24	0x3d712a27	0.05887809
25	0x3986fecd	0.00025748313
26	0x3d65cae9	0.056101713
27	0xbd140ad1	-0.036143128
28	0xbd32797c	-0.043572888
29	0x3dd99fc7	0.10626178
30	0x3c450f63	0.012027594
31	0x3c342ed1	0.01099749

mlp.h1_weights.weight f4 [128, 64]
0	0x3dd26546	0.102732226
1	0x3d9689f6	0.07350533
2	0xbcd23656	-0.025660675
3	0xbd83b1bd	-0.06430385
4	0xbd89e1a6	-0.06732492
5	0xbe81f11c	-0.25379264
6	0xbe39a349	-0.18128695
7	0x3daa8580	0.08326244
8	0x3be53d0a	0.006995802
9	0xbe01443d	-0.12623687
10	0xbea41747	-0.3204901
11	0x3e94610f	0.289803
12	0xbdbbb2e2	-0.091649786
13	0x3dde8637	0.10865443
14	0xbe56f650	-0.20992398
15	0xbdeae3dd	-0.11469243
16	0xbd63616e	-0.055512838
17	0xbdffe739	-0.12495274
18	0xbd5d48ff	-0.054024693
19	0xbd992fdc	-0.074798316
20	0xbddfc728	-0.10926658
21	0xbe30df6e	-0.17272732
22	0x3c42dc22	0.011893304
23	0x3d800be6	0.062522694
24	0x3d3f960e	0.046773963
25	0x3d075747	0.03304222
26	0x3d934fef	0.071929805
27	0xbdaa6762	-0.083205
28	0xbcea63ac	-0.02861198
29	0x3da7cfbd	0.0819392
30	0xbda0a9e5	-0.07844905
31	0xbe15d9a0	-0.14633799
32	0xbd5a34f6	-0.053273164
33	0x3e3e482c	0.18582219
34	0x3db00c57	0.08596104
35	0xbd2edcf0	-0.04269117
36	0x3da81eac	0.08208975
37	0xbe8b63f9	-0.2722471
38	0x3ca5218b	0.020157596
39	0xbb8d893b	-0.0043193377
40	0xbd41d4d8	-0.047322124
41	0xbd2c3080	-0.04203844
42	0x3dcdcbd8	0.10048646
43	0x3e12cbc4	0.14335543
44	0xbd50d351	-0.050982777
45	0x3e5d86d7	0.21633469
46	0x3d7e6f7d	0.062118042
47	0x3e0576c1	0.13033582
48	0xbd481353	-0.048846554
49	0xbd119008	-0.03553775
50	0x3e2b03a8	0.16700613
51	0x3e6e8e8b	0.23296563
52	0xbbafbb32	-0.0053628916
53	0xbe8083dc	-0.251006
54	0x3d571f5c	0.05252014
55	0x3e12386d	0.14279337
56	0xbe2f660d	-0.17128773
57	0x3d20f198	0.0392929
58	0x3d50806f	0.050903734
59	0x3e3eacaa	0.18620554
60	0xbdabc362	-0.08386876
61	0xbe85b68f	-0.26115844
62	0xbd065d54	-0.03280385
63	0xbd8a4366	-0.067511365
64	0xbcc9ba83	-0.024625069
65	0xbdb3d00c	-0.08779916
66	0x3db09ec5	0.08624033
67	0xbd22b25c	-0.039720878
68	0x3bf89ea3	0.0075872703
69	0xbdae3210	-0.085056424
70	0xbd24f576	-0.040273152
71	0x3e080510	0.13283181
72	0xbd9a4620	-0.075329065
73	0xbd89c078	-0.067261636
74	0xbd4eb84c	-0.050468728
75	0x3e1e3e29	0.154534
76	0xbde78b6c	-0.113058895
77	0xbc5a0571	-0.013306961
78	0x3e3d7cbe	0.18504617
79	0x3de4a846	0.11164908
80	0xbe2ead57	-0.17058311
81	0x3c9b6086	0.018966924
82	0x3dbf5895	0.093430676
83	0xbd219a62	-0.03945387
84	0xbe14d27f	-0.14533423
85	0x3d739f7a	0.05947826
86	0x3df5a74c	0.119948
87	0xbe562244	-0.20911509
88	0xbd09f652	-0.033682175
89	0x3d2dbed4	0.042418316
90	0xbd8f0cc7	-0.06984859
91	0x3d311b0b	0.04323868
92	0x3dea16ef	0.114301555
93	0x3e0903e0	0.13380384
94	0x3c385ccb	0.011252592
95	0x3e5cadcd	0.21550675
96	0xbdb61fb0	-0.08892763
97	0x3db9043e	0.09034012
98	0xbdad5a85	-0.08464531
99	0xbdca87cc	-0.098891824
100	0xbdc99643	-0.09843113
101	0x3dd62055	0.104553856
102	0x3e3525bc	0.17690176
103	0xbdb8c7ff	-0.09022521
104	0x3e55fee8	0.2089802
105	0x3dec9fec	0.1155394
106	0xbe68cb23	-0.2273374
107	0x3e6c92c2	0.23102859
108	0xbd48a12c	-0.04898183
109	0x3e09b653	0.13448457
110	0xbdb844b7	-0.08997481
111	0xbe804970	-0.25056028
112	0xbd916703	-0.07099726
113	0xbdc5e183	-0.096621536
114	0xbe62bb0b	-0.22141664
115	0xbb8c8efa	-0.004289505
116	0x3e6a850f	0.2290232
117	0x3ae9b573	0.0017830565
118	0x3c6986b7	0.01425331
119	0xbe5ae75a	-0.21377316
120	0x3e49973e	0.196866
121	0x3d9f7515	0.077860035
122	0x3d9d54b5	0.07682172
123	0xbd0094b3	-0.03139181
124	0x3e4e187d	0.20126529
125	0x3ca5a87b	0.02022194
126	0xbd405f2e	-0.04696577
127	0xbc9fba6d	-0.019498074
128	0x3e240c25	0.16020258
129	0xbd4e583e	-0.050377123
130	0x3bbad874	0.0057020728
131	0xbd62b40a	-0.05534748
132	0xbcafd641	-0.021464469
133	0x3c035552	0.008015947
134	0xbdc0b387	-0.09409242
135	0x3dcaac60	0.09896159
136	0x3c6679a2	0.014067085
137	0xbdb5a375	-0.088690676
138	0x3dc7cd4e	0.09755956
139	0x3d098837	0.03357717
140	0xbdadf782	-0.08494474
141	0xbc0b78df	-0.008512705
142	0xbd8c01c2	-0.06836273
143	0x3e235b87	0.15952884
144	0xbd2cf240	-0.042223215
145	0xbc38c50d	-0.011277449
146	0x3e15b99b	0.14621584
147	0x3e02f3be	0.12788293
148	0x3dd5f6e7	0.104474835
149	0xbdbffaec	-0.093740314
150	0x3e276b75	0.16349585
151	0xbd4158fb	-0.047204
152	0xbe355e55	-0.17711766
153	0x3dc7a257	0.09747761
154	0xbd97e24e	-0.07416211
155	0x3df4fa55	0.119618095
156	0x3d863255	0.06552569
157	0x3cb58c43	0.022161609
158	0xbd0407de	-0.032234065
159	0xbd72ffd4	-0.059326008
160	0x3d8ab9f1	0.06773747
161	0xbe583ad0	-0.21116185
162	0x3d92c8de	0.071672186
163	0x3d51c197	0.051210012
164	0x3c139de5	0.009009813
165	0x3e11cbe1	0.1423793
166	0xbcb864d9	-0.022509025
167	0x3cfa0aad	0.030522669
168	0x3e4eaecf	0.20183872
169	0x3b988d9d	0.0046555535
170	0xbdd0aff4	-0.101898104
171	0x3e1cf2c8	0.15326989
172	0xbc28ffe3	-0.010314914
173	0xbe1442bf	-0.14478587
174	0xbe318e6d	-0.17339487
175	0xbe34ae2c	-0.17644566
176	0x3cf02ef3	0.029319262
177	0xbd0be49e	-0.034153573
178	0x3cae008b	0.021240493
179	0xbe0636fb	-0.13106911
180	0xbde23221	-0.110447176
181	0x3e455e5e	0.1927428
182	0xbc6c45be	-0.014420925
183	0xbe6b2070	-0.22961593
184	0x3db49892	0.08818163
185	0x3e5e56c9	0.21712793
186	0x3d1b4ab9	0.037913058
187	0xbe0f86bd	-0.14016242
188	0x3bc41a84	0.005984606
189	0x3e7688b3	0.24075584
190	0xbbe4ea3c	-0.0069859307
191	0xbddf4954	-0.10902658
192	0x3df552bd	0.11978672
193	0x3e0f4c21	0.13993885
194	0x3e5a6cfa	0.21330634
195	0x3dca70b3	0.09884777
196	0x3c864b6e	0.01639339
197	0x3dbdb47f	0.092629425
198	0xbe1d7a45	-0.15378673
199	0x3bf2ac99	0.007405829
200	0xbcaeb8c5	-0.02132834
201	0xbd8401de	-0.06445669
202	0xbe1c8915	-0.15286668
203	0x3e61f954	0.22067767
204	0xbe0b0bcc	-0.13578719
205	0x3e102676	0.14077172
206	0xbe877c03	-0.264618
207	0xbe1bf34f	-0.15229534
208	0xbe108c5c	-0.14116043
209	0xbd0a39ac	-0.033746406
210	0x3e47c0db	0.19507162
211	0xbe9c1caf	-0.30490634
212	0x3e081ba9	0.13291802
213	0x3d9d13d5	0.07669798
214	0x3e102df7	0.14080034
215	0x3c8d1071	0.017219754
216	0xbd696913	-0.056984972
217	0x3dba3623	0.09092357
218	0xbd335c31	-0.043789092
219	0x3cf8cd23	0.030371254
220	0x3e112d41	0.14177419
221	0xbc4516de	-0.012029378
222	0xbdbaeb6c	-0.091269344
223	0x3da00aa1	0.07814527
224	0xbe14b4a2	-0.14522031
225	0xbb155764	-0.0022787685
226	0x3d0b24b6	0.033970557
227	0xbd2302a9	-0.03979746
228	0xbe2a78d2	-0.16647652
229	0xbe495e51	-0.19664885
230	0x3e0b3543	0.13594536
231	0xbe141885	-0.14462478
232	0x3d307fe2	0.04309071
233	0xbdbdda1e	-0.09270118
234	0x3c39ee6c	0.011348348
235	0x3dee33d0	0.11630976
236	0xbdca01dd	-0.09863637
237	0x3d388196	0.045045458
238	0xbd995ed8	-0.07488793
239	0xbd6d693e	-0.057961695
240	0x3df9f516	0.122049496
241	0xbe0b0306	-0.13575372
242	0x3dfc3f05	0.123167075
243	0x3e1e1c75	0.15440543
244	0xbd5a2968	-0.053262144
245	0xbcb5c67e	-0.022189375
246	0x3e06c246	0.13160047
247	0x3e8e5cb7	0.2780511
248	0xbe20bf08	-0.15697873
249	0xbdd2bc11	-0.10289777
250	0x3e17751c	0.14790767
251	0x3e1c5e83	0.15270428
252	0x3e0c0713	0.13674574
253	0xbe8027ee	-0.25030464
254	0xbd570b7e	-0.052501194
255	0x3db9da18	0.09074801

mlp.h1_weights.bias f4 [128]
0	0x3cd05840	0.025432706
1	0x3c419387	0.011814958
2	0x3cd045ed	0.025423968
3	0x3ccdd55c	0.025126152
4	0x3c391676	0.011296859
5	0x3cbd2d18	0.023092791
6	0xbb11de14	-0.0022257613
7	0x3ca0ef11	0.019645246
8	0xbb8d7e7c	-0.0043180566
9	0x3b0527d1	0.0020317922
10	0xbd17fd84	-0.037107006
11	0x3d1d56ea	0.038412966
12	0xbc6f2ae7	-0.014597631
13	0x3d02d180	0.031938076
14	0xbc88cd0a	-0.016699333
15	0xbccfb3ff	-0.025354384
16	0x3ba51f45	0.005039128
17	0x3cef5973	0.029217457
18	0x3c8acad0	0.016942412
19	0xbd20ab1a	-0.039225675
20	0x3d5bd1d9	0.053666923
21	0x3c6c4517	0.014420769
22	0x3b524102	0.0032082205
23	0xbc7260f4	-0.014793623
24	0x3ca3f1fa	0.020012844
25	0x3cc008c6	0.023441684
26	0xbcb60f0b	-0.02222397
27	0x3d627315	0.055285532
28	0x3d0a726b	0.033800524
29	0x3d24e46e	0.04025691
30	0x3cdb0eff	0.02674055
31	0x3d58017b	0.052735787
32	0x3d0c3948	0.034234315
33	0x3a97c825	0.0011580033
34	0x3c235c40	0.009970725
35	0xbd039f65	-0.032134432
36	0x3c889b0c	0.016675495
37	0xbcb63be0	-0.022245347
38	0x3bb99426	0.0056634126
39	0x3d0db289	0.034594093
40	0x3d0fc17d	0.035096634
41	0x3d1308fc	0.03589724
42	0xbc35aeab	-0.011089007
43	0x3d0bc830	0.03412646
44	0x3c87d620	0.016581595
45	0x3c902522	0.017595831
46	0x3d141e61	0.036161784
47	0xbc254ff6	-0.010089865
48	0x3a674020	0.0008821506
49	0x3c799317	0.015232823
50	0xbc519005	-0.012790685
51	0x3b97ef92	0.0046367133
52	0x3c9b7cf9	0.01898049
53	0xbbc309dd	-0.0059521035
54	0xbd3b4ae3	-0.045725714
55	0x3d2f8bb8	0.042857856
56	0x3cf0aeb3	0.029380178
57	0xbc8b29dc	-0.016987734
58	0x3cf9a25d	0.030472929
59	0x3ca6cc42	0.02036107
60	0x3d1a42d3	0.037661385
61	0x3cfcaf13	0.0308452
62	0xbcb25a94	-0.021771707
63	0x3cf46aa5	0.029836008
64	0xbcc0edf8	-0.023550972
65	0xbd12e3d2	-0.035861798
66	0x3c56fc0c	0.013121616
67	0x3c1b7bb2	0.0094899405
68	0x3c68a1f5	0.01419877
69	0x3c693bf9	0.01423549
70	0xbc53b22a	-0.012920896
71	0x3c21d932	0.009878444
72	0xbb09050a	-0.0020907545
73	0xba5ed84c	-0.00085008587
74	0x3b6dfac5	0.00363128
75	0x3c55ab85	0.013041382
76	0x3bd8ae9b	0.0066126115
77	0xbbce7720	-0.006300822
78	0x3c3bdc82	0.011466147
79	0x3cd454e6	0.025919389
80	0x3d05dd62	0.03268183
81	0x3d1392ac	0.03602855
82	0x3ce1a1cb	0.02754297
83	0x3c3a45f2	0.011369215
84	0x3ca8df71	0.020614358
85	0xbbb906c1	-0.005646557
86	0x3cc90b39	0.024541484
87	0xbc26978f	-0.01016797
88	0x3cf861f0	0.030320138
89	0x3bd16696	0.006390403
90	0x3c415ddb	0.011802162
91	0x3bb483e4	0.0055088867
92	0x3cb6cf5f	0.02231568
93	0x3cb122b4	0.021622993
94	0x3bafc7c0	0.005364388
95	0xbe2f53b0	-0.17121768
96	0x3c9feac8	0.019521132
97	0xbbb0f7ac	-0.0054006185
98	0x3b5793df	0.0032894535
99	0x3cd59ae5	0.026074836
100	0x3bdb66a4	0.0066955853
101	0xbc9007be	-0.017581817
102	0x3d12a9b3	0.03580637
103	0x3c1da766	0.00962243
104	0x3c1dfee2	0.009643288
105	0x3bd4d5b7	0.0064952034
106	0x3d096dcf	0.033551987
107	0x3c2cffb5	0.010559012
108	0xbc300fab	-0.010745923
109	0x3c846bd9	0.016164707
110	0x3b0e029d	0.0021669038
111	0xbae10369	-0.0017167154
112	0x3ac30cbb	0.0014881113
113	0x3be5a9e6	0.007008779
114	0x3c6a6e2f	0.014308496
115	0x3c0c6e6f	0.008571251
116	0x3c38290b	0.011240254
117	0x3cf34fda	0.029701162
118	0xbcc59fdd	-0.02412408
119	0x3b40f987	0.0029445605
120	0xbc623457	-0.013806424
121	0x3b86cedf	0.0041140164
122	0x3cb61805	0.02222825
123	0x3caa0729	0.020755367
124	0xbbf5d7f7	-0.0075025517
125	0x3d1a8f5c	0.037734374
126	0x3c404e1e	0.011737375
127	0x3c39e99a	0.011347199
